{"format": "graph-model", "generatedBy": "2.6.0", "convertedBy": "TensorFlow.js Converter v3.8.0", "signature": {"inputs": {"0": {"name": "unknown:0", "dtype": "DT_FLOAT", "tensorShape": {"dim": [{"size": "1"}, {"size": "512"}]}}}, "outputs": {"output_0": {"name": "Identity:0", "dtype": "DT_FLOAT", "tensorShape": {"dim": [{"size": "1"}, {"size": "3"}, {"size": "512"}, {"size": "512"}]}}}}, "modelTopology": {"node": [{"name": "StatefulPartitionedCall/onnx_tf_prefix_Constant_5", "op": "Const", "attr": {"value": {"tensor": {"dtype": "DT_FLOAT", "tensorShape": {}}}, "dtype": {"type": "DT_FLOAT"}}}, {"name": "StatefulPartitionedCall/onnx_tf_prefix_ReduceMean_1/reduction_indices", "op": "Const", "attr": {"value": {"tensor": {"dtype": "DT_INT32", "tensorShape": {}}}, "dtype": {"type": "DT_INT32"}}}, {"name": "StatefulPartitionedCall/onnx_tf_prefix_Constant_2", "op": "Const", "attr": {"value": {"tensor": {"dtype": "DT_FLOAT", "tensorShape": {}}}, "dtype": {"type": "DT_FLOAT"}}}, {"name": "StatefulPartitionedCall/flatten/Const", "op": "Const", "attr": {"value": {"tensor": {"dtype": "DT_INT32", "tensorShape": {"dim": [{"size": "2"}]}}}, "dtype": {"type": "DT_INT32"}}}, {"name": "StatefulPartitionedCall/transpose", "op": "Const", "attr": {"value": {"tensor": {"dtype": "DT_FLOAT", "tensorShape": {"dim": [{"size": "512"}, {"size": "8192"}]}}}, "dtype": {"type": "DT_FLOAT"}}}, {"name": "StatefulPartitionedCall/mul_1", "op": "Const", "attr": {"value": {"tensor": {"dtype": "DT_FLOAT", "tensorShape": {"dim": [{"size": "8192"}]}}}, "dtype": {"type": "DT_FLOAT"}}}, {"name": "StatefulPartitionedCall/onnx_tf_prefix_Constant_17", "op": "Const", "attr": {"dtype": {"type": "DT_FLOAT"}, "value": {"tensor": {"dtype": "DT_FLOAT", "tensorShape": {}}}}}, {"name": "StatefulPartitionedCall/Cast_5", "op": "Const", "attr": {"dtype": {"type": "DT_INT64"}, "value": {"tensor": {"dtype": "DT_INT64", "tensorShape": {"dim": [{"size": "1"}]}}}}}, {"name": "StatefulPartitionedCall/zeros_1", "op": "Const", "attr": {"dtype": {"type": "DT_INT64"}, "value": {"tensor": {"dtype": "DT_INT64", "tensorShape": {}}}}}, {"name": "StatefulPartitionedCall/onnx_tf_prefix_ReduceMean_27/reduction_indices", "op": "Const", "attr": {"dtype": {"type": "DT_INT32"}, "value": {"tensor": {"dtype": "DT_INT32", "tensorShape": {}}}}}, {"name": "StatefulPartitionedCall/onnx_tf_prefix_Constant_28", "op": "Const", "attr": {"value": {"tensor": {"dtype": "DT_FLOAT", "tensorShape": {}}}, "dtype": {"type": "DT_FLOAT"}}}, {"name": "StatefulPartitionedCall/Const_2", "op": "Const", "attr": {"value": {"tensor": {"dtype": "DT_INT32", "tensorShape": {"dim": [{"size": "4"}, {"size": "2"}]}}}, "dtype": {"type": "DT_INT32"}}}, {"name": "StatefulPartitionedCall/transpose_2/perm", "op": "Const", "attr": {"value": {"tensor": {"dtype": "DT_INT32", "tensorShape": {"dim": [{"size": "4"}]}}}, "dtype": {"type": "DT_INT32"}}}, {"name": "StatefulPartitionedCall/split", "op": "Const", "attr": {"dtype": {"type": "DT_FLOAT"}, "value": {"tensor": {"dtype": "DT_FLOAT", "tensorShape": {"dim": [{"size": "3"}, {"size": "3"}, {"size": "512"}, {"size": "512"}]}}}}}, {"name": "unknown_9", "op": "Const", "attr": {"dtype": {"type": "DT_FLOAT"}, "value": {"tensor": {"dtype": "DT_FLOAT", "tensorShape": {"dim": [{"size": "512"}]}}}}}, {"name": "StatefulPartitionedCall/transpose_3/perm", "op": "Const", "attr": {"value": {"tensor": {"dtype": "DT_INT32", "tensorShape": {"dim": [{"size": "4"}]}}}, "dtype": {"type": "DT_INT32"}}}, {"name": "StatefulPartitionedCall/onnx_tf_prefix_Constant_35", "op": "Const", "attr": {"value": {"tensor": {"dtype": "DT_FLOAT", "tensorShape": {}}}, "dtype": {"type": "DT_FLOAT"}}}, {"name": "StatefulPartitionedCall/onnx_tf_prefix_ReduceMean_39/reduction_indices", "op": "Const", "attr": {"value": {"tensor": {"dtype": "DT_INT32", "tensorShape": {}}}, "dtype": {"type": "DT_INT32"}}}, {"name": "StatefulPartitionedCall/onnx_tf_prefix_Constant_40", "op": "Const", "attr": {"dtype": {"type": "DT_FLOAT"}, "value": {"tensor": {"dtype": "DT_FLOAT", "tensorShape": {}}}}}, {"name": "StatefulPartitionedCall/Cast_12", "op": "Const", "attr": {"dtype": {"type": "DT_INT64"}, "value": {"tensor": {"dtype": "DT_INT64", "tensorShape": {"dim": [{"size": "1"}]}}}}}, {"name": "StatefulPartitionedCall/zeros_2", "op": "Const", "attr": {"value": {"tensor": {"dtype": "DT_INT64", "tensorShape": {}}}, "dtype": {"type": "DT_INT64"}}}, {"name": "StatefulPartitionedCall/Cast_14", "op": "Const", "attr": {"dtype": {"type": "DT_INT64"}, "value": {"tensor": {"dtype": "DT_INT64", "tensorShape": {"dim": [{"size": "1"}]}}}}}, {"name": "StatefulPartitionedCall/zeros_4", "op": "Const", "attr": {"value": {"tensor": {"dtype": "DT_INT64", "tensorShape": {}}}, "dtype": {"type": "DT_INT64"}}}, {"name": "StatefulPartitionedCall/Const_6", "op": "Const", "attr": {"value": {"tensor": {"dtype": "DT_INT32", "tensorShape": {"dim": [{"size": "4"}, {"size": "2"}]}}}, "dtype": {"type": "DT_INT32"}}}, {"name": "StatefulPartitionedCall/transpose_5/perm", "op": "Const", "attr": {"dtype": {"type": "DT_INT32"}, "value": {"tensor": {"dtype": "DT_INT32", "tensorShape": {"dim": [{"size": "4"}]}}}}}, {"name": "StatefulPartitionedCall/split_1", "op": "Const", "attr": {"dtype": {"type": "DT_FLOAT"}, "value": {"tensor": {"dtype": "DT_FLOAT", "tensorShape": {"dim": [{"size": "3"}, {"size": "3"}, {"size": "512"}, {"size": "512"}]}}}}}, {"name": "unknown_19", "op": "Const", "attr": {"value": {"tensor": {"dtype": "DT_FLOAT", "tensorShape": {"dim": [{"size": "512"}]}}}, "dtype": {"type": "DT_FLOAT"}}}, {"name": "StatefulPartitionedCall/transpose_6/perm", "op": "Const", "attr": {"dtype": {"type": "DT_INT32"}, "value": {"tensor": {"dtype": "DT_INT32", "tensorShape": {"dim": [{"size": "4"}]}}}}}, {"name": "StatefulPartitionedCall/onnx_tf_prefix_Constant_84", "op": "Const", "attr": {"value": {"tensor": {"dtype": "DT_FLOAT", "tensorShape": {}}}, "dtype": {"type": "DT_FLOAT"}}}, {"name": "StatefulPartitionedCall/onnx_tf_prefix_ReduceMean_88/reduction_indices", "op": "Const", "attr": {"value": {"tensor": {"dtype": "DT_INT32", "tensorShape": {}}}, "dtype": {"type": "DT_INT32"}}}, {"name": "StatefulPartitionedCall/onnx_tf_prefix_Constant_89", "op": "Const", "attr": {"value": {"tensor": {"dtype": "DT_FLOAT", "tensorShape": {}}}, "dtype": {"type": "DT_FLOAT"}}}, {"name": "StatefulPartitionedCall/Const_7", "op": "Const", "attr": {"value": {"tensor": {"dtype": "DT_INT32", "tensorShape": {"dim": [{"size": "4"}, {"size": "2"}]}}}, "dtype": {"type": "DT_INT32"}}}, {"name": "StatefulPartitionedCall/transpose_8/perm", "op": "Const", "attr": {"dtype": {"type": "DT_INT32"}, "value": {"tensor": {"dtype": "DT_INT32", "tensorShape": {"dim": [{"size": "4"}]}}}}}, {"name": "StatefulPartitionedCall/split_2", "op": "Const", "attr": {"value": {"tensor": {"dtype": "DT_FLOAT", "tensorShape": {"dim": [{"size": "3"}, {"size": "3"}, {"size": "512"}, {"size": "512"}]}}}, "dtype": {"type": "DT_FLOAT"}}}, {"name": "unknown_22", "op": "Const", "attr": {"dtype": {"type": "DT_FLOAT"}, "value": {"tensor": {"dtype": "DT_FLOAT", "tensorShape": {"dim": [{"size": "512"}]}}}}}, {"name": "StatefulPartitionedCall/transpose_9/perm", "op": "Const", "attr": {"value": {"tensor": {"dtype": "DT_INT32", "tensorShape": {"dim": [{"size": "4"}]}}}, "dtype": {"type": "DT_INT32"}}}, {"name": "StatefulPartitionedCall/onnx_tf_prefix_Constant_96", "op": "Const", "attr": {"value": {"tensor": {"dtype": "DT_FLOAT", "tensorShape": {}}}, "dtype": {"type": "DT_FLOAT"}}}, {"name": "StatefulPartitionedCall/onnx_tf_prefix_ReduceMean_100/reduction_indices", "op": "Const", "attr": {"dtype": {"type": "DT_INT32"}, "value": {"tensor": {"dtype": "DT_INT32", "tensorShape": {}}}}}, {"name": "StatefulPartitionedCall/onnx_tf_prefix_Constant_101", "op": "Const", "attr": {"value": {"tensor": {"dtype": "DT_FLOAT", "tensorShape": {}}}, "dtype": {"type": "DT_FLOAT"}}}, {"name": "StatefulPartitionedCall/Cast_21", "op": "Const", "attr": {"value": {"tensor": {"dtype": "DT_INT64", "tensorShape": {"dim": [{"size": "1"}]}}}, "dtype": {"type": "DT_INT64"}}}, {"name": "StatefulPartitionedCall/zeros_5", "op": "Const", "attr": {"value": {"tensor": {"dtype": "DT_INT64", "tensorShape": {}}}, "dtype": {"type": "DT_INT64"}}}, {"name": "StatefulPartitionedCall/Cast_23", "op": "Const", "attr": {"dtype": {"type": "DT_INT64"}, "value": {"tensor": {"dtype": "DT_INT64", "tensorShape": {"dim": [{"size": "1"}]}}}}}, {"name": "StatefulPartitionedCall/zeros_7", "op": "Const", "attr": {"dtype": {"type": "DT_INT64"}, "value": {"tensor": {"dtype": "DT_INT64", "tensorShape": {}}}}}, {"name": "StatefulPartitionedCall/Const_11", "op": "Const", "attr": {"dtype": {"type": "DT_INT32"}, "value": {"tensor": {"dtype": "DT_INT32", "tensorShape": {"dim": [{"size": "4"}, {"size": "2"}]}}}}}, {"name": "StatefulPartitionedCall/transpose_11/perm", "op": "Const", "attr": {"value": {"tensor": {"dtype": "DT_INT32", "tensorShape": {"dim": [{"size": "4"}]}}}, "dtype": {"type": "DT_INT32"}}}, {"name": "StatefulPartitionedCall/split_3", "op": "Const", "attr": {"dtype": {"type": "DT_FLOAT"}, "value": {"tensor": {"dtype": "DT_FLOAT", "tensorShape": {"dim": [{"size": "3"}, {"size": "3"}, {"size": "512"}, {"size": "512"}]}}}}}, {"name": "unknown_32", "op": "Const", "attr": {"dtype": {"type": "DT_FLOAT"}, "value": {"tensor": {"dtype": "DT_FLOAT", "tensorShape": {"dim": [{"size": "512"}]}}}}}, {"name": "StatefulPartitionedCall/transpose_12/perm", "op": "Const", "attr": {"dtype": {"type": "DT_INT32"}, "value": {"tensor": {"dtype": "DT_INT32", "tensorShape": {"dim": [{"size": "4"}]}}}}}, {"name": "StatefulPartitionedCall/onnx_tf_prefix_Constant_145", "op": "Const", "attr": {"value": {"tensor": {"dtype": "DT_FLOAT", "tensorShape": {}}}, "dtype": {"type": "DT_FLOAT"}}}, {"name": "StatefulPartitionedCall/onnx_tf_prefix_ReduceMean_149/reduction_indices", "op": "Const", "attr": {"value": {"tensor": {"dtype": "DT_INT32", "tensorShape": {}}}, "dtype": {"type": "DT_INT32"}}}, {"name": "StatefulPartitionedCall/onnx_tf_prefix_Constant_150", "op": "Const", "attr": {"dtype": {"type": "DT_FLOAT"}, "value": {"tensor": {"dtype": "DT_FLOAT", "tensorShape": {}}}}}, {"name": "StatefulPartitionedCall/Const_12", "op": "Const", "attr": {"value": {"tensor": {"dtype": "DT_INT32", "tensorShape": {"dim": [{"size": "4"}, {"size": "2"}]}}}, "dtype": {"type": "DT_INT32"}}}, {"name": "StatefulPartitionedCall/transpose_14/perm", "op": "Const", "attr": {"value": {"tensor": {"dtype": "DT_INT32", "tensorShape": {"dim": [{"size": "4"}]}}}, "dtype": {"type": "DT_INT32"}}}, {"name": "StatefulPartitionedCall/split_4", "op": "Const", "attr": {"value": {"tensor": {"dtype": "DT_FLOAT", "tensorShape": {"dim": [{"size": "3"}, {"size": "3"}, {"size": "512"}, {"size": "512"}]}}}, "dtype": {"type": "DT_FLOAT"}}}, {"name": "unknown_35", "op": "Const", "attr": {"dtype": {"type": "DT_FLOAT"}, "value": {"tensor": {"dtype": "DT_FLOAT", "tensorShape": {"dim": [{"size": "512"}]}}}}}, {"name": "StatefulPartitionedCall/transpose_15/perm", "op": "Const", "attr": {"value": {"tensor": {"dtype": "DT_INT32", "tensorShape": {"dim": [{"size": "4"}]}}}, "dtype": {"type": "DT_INT32"}}}, {"name": "StatefulPartitionedCall/onnx_tf_prefix_Constant_157", "op": "Const", "attr": {"value": {"tensor": {"dtype": "DT_FLOAT", "tensorShape": {}}}, "dtype": {"type": "DT_FLOAT"}}}, {"name": "StatefulPartitionedCall/onnx_tf_prefix_ReduceMean_161/reduction_indices", "op": "Const", "attr": {"dtype": {"type": "DT_INT32"}, "value": {"tensor": {"dtype": "DT_INT32", "tensorShape": {}}}}}, {"name": "StatefulPartitionedCall/onnx_tf_prefix_Constant_162", "op": "Const", "attr": {"value": {"tensor": {"dtype": "DT_FLOAT", "tensorShape": {}}}, "dtype": {"type": "DT_FLOAT"}}}, {"name": "StatefulPartitionedCall/Cast_30", "op": "Const", "attr": {"value": {"tensor": {"dtype": "DT_INT64", "tensorShape": {"dim": [{"size": "1"}]}}}, "dtype": {"type": "DT_INT64"}}}, {"name": "StatefulPartitionedCall/zeros_8", "op": "Const", "attr": {"value": {"tensor": {"dtype": "DT_INT64", "tensorShape": {}}}, "dtype": {"type": "DT_INT64"}}}, {"name": "StatefulPartitionedCall/Cast_32", "op": "Const", "attr": {"value": {"tensor": {"dtype": "DT_INT64", "tensorShape": {"dim": [{"size": "1"}]}}}, "dtype": {"type": "DT_INT64"}}}, {"name": "StatefulPartitionedCall/zeros_10", "op": "Const", "attr": {"value": {"tensor": {"dtype": "DT_INT64", "tensorShape": {}}}, "dtype": {"type": "DT_INT64"}}}, {"name": "StatefulPartitionedCall/Const_16", "op": "Const", "attr": {"dtype": {"type": "DT_INT32"}, "value": {"tensor": {"dtype": "DT_INT32", "tensorShape": {"dim": [{"size": "4"}, {"size": "2"}]}}}}}, {"name": "StatefulPartitionedCall/transpose_17/perm", "op": "Const", "attr": {"dtype": {"type": "DT_INT32"}, "value": {"tensor": {"dtype": "DT_INT32", "tensorShape": {"dim": [{"size": "4"}]}}}}}, {"name": "StatefulPartitionedCall/split_5", "op": "Const", "attr": {"value": {"tensor": {"dtype": "DT_FLOAT", "tensorShape": {"dim": [{"size": "3"}, {"size": "3"}, {"size": "512"}, {"size": "512"}]}}}, "dtype": {"type": "DT_FLOAT"}}}, {"name": "unknown_45", "op": "Const", "attr": {"dtype": {"type": "DT_FLOAT"}, "value": {"tensor": {"dtype": "DT_FLOAT", "tensorShape": {"dim": [{"size": "512"}]}}}}}, {"name": "StatefulPartitionedCall/transpose_18/perm", "op": "Const", "attr": {"value": {"tensor": {"dtype": "DT_INT32", "tensorShape": {"dim": [{"size": "4"}]}}}, "dtype": {"type": "DT_INT32"}}}, {"name": "StatefulPartitionedCall/onnx_tf_prefix_Constant_206", "op": "Const", "attr": {"value": {"tensor": {"dtype": "DT_FLOAT", "tensorShape": {}}}, "dtype": {"type": "DT_FLOAT"}}}, {"name": "StatefulPartitionedCall/onnx_tf_prefix_ReduceMean_210/reduction_indices", "op": "Const", "attr": {"value": {"tensor": {"dtype": "DT_INT32", "tensorShape": {}}}, "dtype": {"type": "DT_INT32"}}}, {"name": "StatefulPartitionedCall/onnx_tf_prefix_Constant_211", "op": "Const", "attr": {"value": {"tensor": {"dtype": "DT_FLOAT", "tensorShape": {}}}, "dtype": {"type": "DT_FLOAT"}}}, {"name": "StatefulPartitionedCall/Const_17", "op": "Const", "attr": {"value": {"tensor": {"dtype": "DT_INT32", "tensorShape": {"dim": [{"size": "4"}, {"size": "2"}]}}}, "dtype": {"type": "DT_INT32"}}}, {"name": "StatefulPartitionedCall/transpose_20/perm", "op": "Const", "attr": {"value": {"tensor": {"dtype": "DT_INT32", "tensorShape": {"dim": [{"size": "4"}]}}}, "dtype": {"type": "DT_INT32"}}}, {"name": "StatefulPartitionedCall/split_6", "op": "Const", "attr": {"value": {"tensor": {"dtype": "DT_FLOAT", "tensorShape": {"dim": [{"size": "3"}, {"size": "3"}, {"size": "512"}, {"size": "512"}]}}}, "dtype": {"type": "DT_FLOAT"}}}, {"name": "unknown_48", "op": "Const", "attr": {"value": {"tensor": {"dtype": "DT_FLOAT", "tensorShape": {"dim": [{"size": "512"}]}}}, "dtype": {"type": "DT_FLOAT"}}}, {"name": "StatefulPartitionedCall/transpose_21/perm", "op": "Const", "attr": {"value": {"tensor": {"dtype": "DT_INT32", "tensorShape": {"dim": [{"size": "4"}]}}}, "dtype": {"type": "DT_INT32"}}}, {"name": "StatefulPartitionedCall/onnx_tf_prefix_Constant_218", "op": "Const", "attr": {"value": {"tensor": {"dtype": "DT_FLOAT", "tensorShape": {}}}, "dtype": {"type": "DT_FLOAT"}}}, {"name": "StatefulPartitionedCall/onnx_tf_prefix_ReduceMean_222/reduction_indices", "op": "Const", "attr": {"value": {"tensor": {"dtype": "DT_INT32", "tensorShape": {}}}, "dtype": {"type": "DT_INT32"}}}, {"name": "StatefulPartitionedCall/onnx_tf_prefix_Constant_223", "op": "Const", "attr": {"dtype": {"type": "DT_FLOAT"}, "value": {"tensor": {"dtype": "DT_FLOAT", "tensorShape": {}}}}}, {"name": "StatefulPartitionedCall/Cast_39", "op": "Const", "attr": {"dtype": {"type": "DT_INT64"}, "value": {"tensor": {"dtype": "DT_INT64", "tensorShape": {"dim": [{"size": "1"}]}}}}}, {"name": "StatefulPartitionedCall/zeros_11", "op": "Const", "attr": {"value": {"tensor": {"dtype": "DT_INT64", "tensorShape": {}}}, "dtype": {"type": "DT_INT64"}}}, {"name": "StatefulPartitionedCall/Cast_41", "op": "Const", "attr": {"dtype": {"type": "DT_INT64"}, "value": {"tensor": {"dtype": "DT_INT64", "tensorShape": {"dim": [{"size": "1"}]}}}}}, {"name": "StatefulPartitionedCall/zeros_13", "op": "Const", "attr": {"value": {"tensor": {"dtype": "DT_INT64", "tensorShape": {}}}, "dtype": {"type": "DT_INT64"}}}, {"name": "StatefulPartitionedCall/Const_21", "op": "Const", "attr": {"dtype": {"type": "DT_INT32"}, "value": {"tensor": {"dtype": "DT_INT32", "tensorShape": {"dim": [{"size": "4"}, {"size": "2"}]}}}}}, {"name": "StatefulPartitionedCall/transpose_23/perm", "op": "Const", "attr": {"value": {"tensor": {"dtype": "DT_INT32", "tensorShape": {"dim": [{"size": "4"}]}}}, "dtype": {"type": "DT_INT32"}}}, {"name": "StatefulPartitionedCall/split_7", "op": "Const", "attr": {"value": {"tensor": {"dtype": "DT_FLOAT", "tensorShape": {"dim": [{"size": "3"}, {"size": "3"}, {"size": "512"}, {"size": "256"}]}}}, "dtype": {"type": "DT_FLOAT"}}}, {"name": "unknown_58", "op": "Const", "attr": {"value": {"tensor": {"dtype": "DT_FLOAT", "tensorShape": {"dim": [{"size": "256"}]}}}, "dtype": {"type": "DT_FLOAT"}}}, {"name": "StatefulPartitionedCall/transpose_24/perm", "op": "Const", "attr": {"dtype": {"type": "DT_INT32"}, "value": {"tensor": {"dtype": "DT_INT32", "tensorShape": {"dim": [{"size": "4"}]}}}}}, {"name": "StatefulPartitionedCall/onnx_tf_prefix_Constant_267", "op": "Const", "attr": {"dtype": {"type": "DT_FLOAT"}, "value": {"tensor": {"dtype": "DT_FLOAT", "tensorShape": {}}}}}, {"name": "StatefulPartitionedCall/onnx_tf_prefix_ReduceMean_271/reduction_indices", "op": "Const", "attr": {"value": {"tensor": {"dtype": "DT_INT32", "tensorShape": {}}}, "dtype": {"type": "DT_INT32"}}}, {"name": "StatefulPartitionedCall/onnx_tf_prefix_Constant_272", "op": "Const", "attr": {"value": {"tensor": {"dtype": "DT_FLOAT", "tensorShape": {}}}, "dtype": {"type": "DT_FLOAT"}}}, {"name": "StatefulPartitionedCall/Const_22", "op": "Const", "attr": {"dtype": {"type": "DT_INT32"}, "value": {"tensor": {"dtype": "DT_INT32", "tensorShape": {"dim": [{"size": "4"}, {"size": "2"}]}}}}}, {"name": "StatefulPartitionedCall/transpose_26/perm", "op": "Const", "attr": {"dtype": {"type": "DT_INT32"}, "value": {"tensor": {"dtype": "DT_INT32", "tensorShape": {"dim": [{"size": "4"}]}}}}}, {"name": "StatefulPartitionedCall/split_8", "op": "Const", "attr": {"dtype": {"type": "DT_FLOAT"}, "value": {"tensor": {"dtype": "DT_FLOAT", "tensorShape": {"dim": [{"size": "3"}, {"size": "3"}, {"size": "256"}, {"size": "256"}]}}}}}, {"name": "unknown_61", "op": "Const", "attr": {"dtype": {"type": "DT_FLOAT"}, "value": {"tensor": {"dtype": "DT_FLOAT", "tensorShape": {"dim": [{"size": "256"}]}}}}}, {"name": "StatefulPartitionedCall/transpose_27/perm", "op": "Const", "attr": {"dtype": {"type": "DT_INT32"}, "value": {"tensor": {"dtype": "DT_INT32", "tensorShape": {"dim": [{"size": "4"}]}}}}}, {"name": "StatefulPartitionedCall/onnx_tf_prefix_Constant_279", "op": "Const", "attr": {"dtype": {"type": "DT_FLOAT"}, "value": {"tensor": {"dtype": "DT_FLOAT", "tensorShape": {}}}}}, {"name": "StatefulPartitionedCall/onnx_tf_prefix_ReduceMean_283/reduction_indices", "op": "Const", "attr": {"value": {"tensor": {"dtype": "DT_INT32", "tensorShape": {}}}, "dtype": {"type": "DT_INT32"}}}, {"name": "StatefulPartitionedCall/onnx_tf_prefix_Constant_284", "op": "Const", "attr": {"value": {"tensor": {"dtype": "DT_FLOAT", "tensorShape": {}}}, "dtype": {"type": "DT_FLOAT"}}}, {"name": "StatefulPartitionedCall/Cast_48", "op": "Const", "attr": {"dtype": {"type": "DT_INT64"}, "value": {"tensor": {"dtype": "DT_INT64", "tensorShape": {"dim": [{"size": "1"}]}}}}}, {"name": "StatefulPartitionedCall/zeros_14", "op": "Const", "attr": {"value": {"tensor": {"dtype": "DT_INT64", "tensorShape": {}}}, "dtype": {"type": "DT_INT64"}}}, {"name": "StatefulPartitionedCall/Cast_50", "op": "Const", "attr": {"value": {"tensor": {"dtype": "DT_INT64", "tensorShape": {"dim": [{"size": "1"}]}}}, "dtype": {"type": "DT_INT64"}}}, {"name": "StatefulPartitionedCall/zeros_16", "op": "Const", "attr": {"dtype": {"type": "DT_INT64"}, "value": {"tensor": {"dtype": "DT_INT64", "tensorShape": {}}}}}, {"name": "StatefulPartitionedCall/Const_26", "op": "Const", "attr": {"value": {"tensor": {"dtype": "DT_INT32", "tensorShape": {"dim": [{"size": "4"}, {"size": "2"}]}}}, "dtype": {"type": "DT_INT32"}}}, {"name": "StatefulPartitionedCall/transpose_29/perm", "op": "Const", "attr": {"value": {"tensor": {"dtype": "DT_INT32", "tensorShape": {"dim": [{"size": "4"}]}}}, "dtype": {"type": "DT_INT32"}}}, {"name": "StatefulPartitionedCall/split_9", "op": "Const", "attr": {"dtype": {"type": "DT_FLOAT"}, "value": {"tensor": {"dtype": "DT_FLOAT", "tensorShape": {"dim": [{"size": "3"}, {"size": "3"}, {"size": "256"}, {"size": "128"}]}}}}}, {"name": "unknown_71", "op": "Const", "attr": {"dtype": {"type": "DT_FLOAT"}, "value": {"tensor": {"dtype": "DT_FLOAT", "tensorShape": {"dim": [{"size": "128"}]}}}}}, {"name": "StatefulPartitionedCall/transpose_30/perm", "op": "Const", "attr": {"value": {"tensor": {"dtype": "DT_INT32", "tensorShape": {"dim": [{"size": "4"}]}}}, "dtype": {"type": "DT_INT32"}}}, {"name": "StatefulPartitionedCall/onnx_tf_prefix_Constant_328", "op": "Const", "attr": {"dtype": {"type": "DT_FLOAT"}, "value": {"tensor": {"dtype": "DT_FLOAT", "tensorShape": {}}}}}, {"name": "StatefulPartitionedCall/onnx_tf_prefix_ReduceMean_332/reduction_indices", "op": "Const", "attr": {"value": {"tensor": {"dtype": "DT_INT32", "tensorShape": {}}}, "dtype": {"type": "DT_INT32"}}}, {"name": "StatefulPartitionedCall/onnx_tf_prefix_Constant_333", "op": "Const", "attr": {"dtype": {"type": "DT_FLOAT"}, "value": {"tensor": {"dtype": "DT_FLOAT", "tensorShape": {}}}}}, {"name": "StatefulPartitionedCall/Const_27", "op": "Const", "attr": {"value": {"tensor": {"dtype": "DT_INT32", "tensorShape": {"dim": [{"size": "4"}, {"size": "2"}]}}}, "dtype": {"type": "DT_INT32"}}}, {"name": "StatefulPartitionedCall/transpose_32/perm", "op": "Const", "attr": {"dtype": {"type": "DT_INT32"}, "value": {"tensor": {"dtype": "DT_INT32", "tensorShape": {"dim": [{"size": "4"}]}}}}}, {"name": "StatefulPartitionedCall/split_10", "op": "Const", "attr": {"value": {"tensor": {"dtype": "DT_FLOAT", "tensorShape": {"dim": [{"size": "3"}, {"size": "3"}, {"size": "128"}, {"size": "128"}]}}}, "dtype": {"type": "DT_FLOAT"}}}, {"name": "unknown_74", "op": "Const", "attr": {"dtype": {"type": "DT_FLOAT"}, "value": {"tensor": {"dtype": "DT_FLOAT", "tensorShape": {"dim": [{"size": "128"}]}}}}}, {"name": "StatefulPartitionedCall/transpose_33/perm", "op": "Const", "attr": {"value": {"tensor": {"dtype": "DT_INT32", "tensorShape": {"dim": [{"size": "4"}]}}}, "dtype": {"type": "DT_INT32"}}}, {"name": "StatefulPartitionedCall/onnx_tf_prefix_Constant_340", "op": "Const", "attr": {"value": {"tensor": {"dtype": "DT_FLOAT", "tensorShape": {}}}, "dtype": {"type": "DT_FLOAT"}}}, {"name": "StatefulPartitionedCall/onnx_tf_prefix_ReduceMean_344/reduction_indices", "op": "Const", "attr": {"dtype": {"type": "DT_INT32"}, "value": {"tensor": {"dtype": "DT_INT32", "tensorShape": {}}}}}, {"name": "StatefulPartitionedCall/onnx_tf_prefix_Constant_345", "op": "Const", "attr": {"value": {"tensor": {"dtype": "DT_FLOAT", "tensorShape": {}}}, "dtype": {"type": "DT_FLOAT"}}}, {"name": "StatefulPartitionedCall/Cast_57", "op": "Const", "attr": {"dtype": {"type": "DT_INT64"}, "value": {"tensor": {"dtype": "DT_INT64", "tensorShape": {"dim": [{"size": "1"}]}}}}}, {"name": "StatefulPartitionedCall/zeros_17", "op": "Const", "attr": {"value": {"tensor": {"dtype": "DT_INT64", "tensorShape": {}}}, "dtype": {"type": "DT_INT64"}}}, {"name": "StatefulPartitionedCall/Cast_59", "op": "Const", "attr": {"dtype": {"type": "DT_INT64"}, "value": {"tensor": {"dtype": "DT_INT64", "tensorShape": {"dim": [{"size": "1"}]}}}}}, {"name": "StatefulPartitionedCall/zeros_19", "op": "Const", "attr": {"value": {"tensor": {"dtype": "DT_INT64", "tensorShape": {}}}, "dtype": {"type": "DT_INT64"}}}, {"name": "StatefulPartitionedCall/Const_31", "op": "Const", "attr": {"dtype": {"type": "DT_INT32"}, "value": {"tensor": {"dtype": "DT_INT32", "tensorShape": {"dim": [{"size": "4"}, {"size": "2"}]}}}}}, {"name": "StatefulPartitionedCall/transpose_35/perm", "op": "Const", "attr": {"dtype": {"type": "DT_INT32"}, "value": {"tensor": {"dtype": "DT_INT32", "tensorShape": {"dim": [{"size": "4"}]}}}}}, {"name": "StatefulPartitionedCall/split_11", "op": "Const", "attr": {"dtype": {"type": "DT_FLOAT"}, "value": {"tensor": {"dtype": "DT_FLOAT", "tensorShape": {"dim": [{"size": "3"}, {"size": "3"}, {"size": "128"}, {"size": "64"}]}}}}}, {"name": "unknown_84", "op": "Const", "attr": {"dtype": {"type": "DT_FLOAT"}, "value": {"tensor": {"dtype": "DT_FLOAT", "tensorShape": {"dim": [{"size": "64"}]}}}}}, {"name": "StatefulPartitionedCall/transpose_36/perm", "op": "Const", "attr": {"dtype": {"type": "DT_INT32"}, "value": {"tensor": {"dtype": "DT_INT32", "tensorShape": {"dim": [{"size": "4"}]}}}}}, {"name": "StatefulPartitionedCall/onnx_tf_prefix_Constant_389", "op": "Const", "attr": {"value": {"tensor": {"dtype": "DT_FLOAT", "tensorShape": {}}}, "dtype": {"type": "DT_FLOAT"}}}, {"name": "StatefulPartitionedCall/onnx_tf_prefix_ReduceMean_393/reduction_indices", "op": "Const", "attr": {"dtype": {"type": "DT_INT32"}, "value": {"tensor": {"dtype": "DT_INT32", "tensorShape": {}}}}}, {"name": "StatefulPartitionedCall/onnx_tf_prefix_Constant_394", "op": "Const", "attr": {"value": {"tensor": {"dtype": "DT_FLOAT", "tensorShape": {}}}, "dtype": {"type": "DT_FLOAT"}}}, {"name": "StatefulPartitionedCall/Const_32", "op": "Const", "attr": {"value": {"tensor": {"dtype": "DT_INT32", "tensorShape": {"dim": [{"size": "4"}, {"size": "2"}]}}}, "dtype": {"type": "DT_INT32"}}}, {"name": "StatefulPartitionedCall/transpose_38/perm", "op": "Const", "attr": {"value": {"tensor": {"dtype": "DT_INT32", "tensorShape": {"dim": [{"size": "4"}]}}}, "dtype": {"type": "DT_INT32"}}}, {"name": "StatefulPartitionedCall/split_12", "op": "Const", "attr": {"value": {"tensor": {"dtype": "DT_FLOAT", "tensorShape": {"dim": [{"size": "3"}, {"size": "3"}, {"size": "64"}, {"size": "64"}]}}}, "dtype": {"type": "DT_FLOAT"}}}, {"name": "unknown_87", "op": "Const", "attr": {"value": {"tensor": {"dtype": "DT_FLOAT", "tensorShape": {"dim": [{"size": "64"}]}}}, "dtype": {"type": "DT_FLOAT"}}}, {"name": "StatefulPartitionedCall/transpose_39/perm", "op": "Const", "attr": {"value": {"tensor": {"dtype": "DT_INT32", "tensorShape": {"dim": [{"size": "4"}]}}}, "dtype": {"type": "DT_INT32"}}}, {"name": "StatefulPartitionedCall/onnx_tf_prefix_Constant_401", "op": "Const", "attr": {"value": {"tensor": {"dtype": "DT_FLOAT", "tensorShape": {}}}, "dtype": {"type": "DT_FLOAT"}}}, {"name": "StatefulPartitionedCall/onnx_tf_prefix_ReduceMean_405/reduction_indices", "op": "Const", "attr": {"value": {"tensor": {"dtype": "DT_INT32", "tensorShape": {}}}, "dtype": {"type": "DT_INT32"}}}, {"name": "StatefulPartitionedCall/onnx_tf_prefix_Constant_406", "op": "Const", "attr": {"dtype": {"type": "DT_FLOAT"}, "value": {"tensor": {"dtype": "DT_FLOAT", "tensorShape": {}}}}}, {"name": "StatefulPartitionedCall/Cast_66", "op": "Const", "attr": {"value": {"tensor": {"dtype": "DT_INT64", "tensorShape": {"dim": [{"size": "1"}]}}}, "dtype": {"type": "DT_INT64"}}}, {"name": "StatefulPartitionedCall/zeros_20", "op": "Const", "attr": {"dtype": {"type": "DT_INT64"}, "value": {"tensor": {"dtype": "DT_INT64", "tensorShape": {}}}}}, {"name": "StatefulPartitionedCall/Cast_68", "op": "Const", "attr": {"value": {"tensor": {"dtype": "DT_INT64", "tensorShape": {"dim": [{"size": "1"}]}}}, "dtype": {"type": "DT_INT64"}}}, {"name": "StatefulPartitionedCall/zeros_22", "op": "Const", "attr": {"dtype": {"type": "DT_INT64"}, "value": {"tensor": {"dtype": "DT_INT64", "tensorShape": {}}}}}, {"name": "StatefulPartitionedCall/Const_36", "op": "Const", "attr": {"value": {"tensor": {"dtype": "DT_INT32", "tensorShape": {"dim": [{"size": "4"}, {"size": "2"}]}}}, "dtype": {"type": "DT_INT32"}}}, {"name": "StatefulPartitionedCall/transpose_41/perm", "op": "Const", "attr": {"value": {"tensor": {"dtype": "DT_INT32", "tensorShape": {"dim": [{"size": "4"}]}}}, "dtype": {"type": "DT_INT32"}}}, {"name": "StatefulPartitionedCall/split_13", "op": "Const", "attr": {"value": {"tensor": {"dtype": "DT_FLOAT", "tensorShape": {"dim": [{"size": "3"}, {"size": "3"}, {"size": "64"}, {"size": "32"}]}}}, "dtype": {"type": "DT_FLOAT"}}}, {"name": "unknown_97", "op": "Const", "attr": {"value": {"tensor": {"dtype": "DT_FLOAT", "tensorShape": {"dim": [{"size": "32"}]}}}, "dtype": {"type": "DT_FLOAT"}}}, {"name": "StatefulPartitionedCall/transpose_42/perm", "op": "Const", "attr": {"dtype": {"type": "DT_INT32"}, "value": {"tensor": {"dtype": "DT_INT32", "tensorShape": {"dim": [{"size": "4"}]}}}}}, {"name": "StatefulPartitionedCall/onnx_tf_prefix_Constant_450", "op": "Const", "attr": {"value": {"tensor": {"dtype": "DT_FLOAT", "tensorShape": {}}}, "dtype": {"type": "DT_FLOAT"}}}, {"name": "StatefulPartitionedCall/onnx_tf_prefix_ReduceMean_454/reduction_indices", "op": "Const", "attr": {"dtype": {"type": "DT_INT32"}, "value": {"tensor": {"dtype": "DT_INT32", "tensorShape": {}}}}}, {"name": "StatefulPartitionedCall/onnx_tf_prefix_Constant_455", "op": "Const", "attr": {"dtype": {"type": "DT_FLOAT"}, "value": {"tensor": {"dtype": "DT_FLOAT", "tensorShape": {}}}}}, {"name": "StatefulPartitionedCall/Const_37", "op": "Const", "attr": {"value": {"tensor": {"dtype": "DT_INT32", "tensorShape": {"dim": [{"size": "4"}, {"size": "2"}]}}}, "dtype": {"type": "DT_INT32"}}}, {"name": "StatefulPartitionedCall/transpose_44/perm", "op": "Const", "attr": {"dtype": {"type": "DT_INT32"}, "value": {"tensor": {"dtype": "DT_INT32", "tensorShape": {"dim": [{"size": "4"}]}}}}}, {"name": "StatefulPartitionedCall/split_14", "op": "Const", "attr": {"dtype": {"type": "DT_FLOAT"}, "value": {"tensor": {"dtype": "DT_FLOAT", "tensorShape": {"dim": [{"size": "3"}, {"size": "3"}, {"size": "32"}, {"size": "32"}]}}}}}, {"name": "unknown_100", "op": "Const", "attr": {"value": {"tensor": {"dtype": "DT_FLOAT", "tensorShape": {"dim": [{"size": "32"}]}}}, "dtype": {"type": "DT_FLOAT"}}}, {"name": "StatefulPartitionedCall/transpose_45/perm", "op": "Const", "attr": {"value": {"tensor": {"dtype": "DT_INT32", "tensorShape": {"dim": [{"size": "4"}]}}}, "dtype": {"type": "DT_INT32"}}}, {"name": "StatefulPartitionedCall/onnx_tf_prefix_Constant_462", "op": "Const", "attr": {"value": {"tensor": {"dtype": "DT_FLOAT", "tensorShape": {}}}, "dtype": {"type": "DT_FLOAT"}}}, {"name": "StatefulPartitionedCall/onnx_tf_prefix_ReduceMean_466/reduction_indices", "op": "Const", "attr": {"value": {"tensor": {"dtype": "DT_INT32", "tensorShape": {}}}, "dtype": {"type": "DT_INT32"}}}, {"name": "StatefulPartitionedCall/onnx_tf_prefix_Constant_467", "op": "Const", "attr": {"value": {"tensor": {"dtype": "DT_FLOAT", "tensorShape": {}}}, "dtype": {"type": "DT_FLOAT"}}}, {"name": "StatefulPartitionedCall/transpose_47/perm", "op": "Const", "attr": {"dtype": {"type": "DT_INT32"}, "value": {"tensor": {"dtype": "DT_INT32", "tensorShape": {"dim": [{"size": "4"}]}}}}}, {"name": "StatefulPartitionedCall/split_15", "op": "Const", "attr": {"dtype": {"type": "DT_FLOAT"}, "value": {"tensor": {"dtype": "DT_FLOAT", "tensorShape": {"dim": [{"size": "1"}, {"size": "1"}, {"size": "32"}, {"size": "3"}]}}}}}, {"name": "unknown_103", "op": "Const", "attr": {"value": {"tensor": {"dtype": "DT_FLOAT", "tensorShape": {"dim": [{"size": "3"}]}}}, "dtype": {"type": "DT_FLOAT"}}}, {"name": "StatefulPartitionedCall/transpose_48/perm", "op": "Const", "attr": {"dtype": {"type": "DT_INT32"}, "value": {"tensor": {"dtype": "DT_INT32", "tensorShape": {"dim": [{"size": "4"}]}}}}}, {"name": "StatefulPartitionedCall/onnx_tf_prefix_Constant_474", "op": "Const", "attr": {"dtype": {"type": "DT_FLOAT"}, "value": {"tensor": {"dtype": "DT_FLOAT", "tensorShape": {}}}}}, {"name": "StatefulPartitionedCall/assert_equal_7/All", "op": "Const", "attr": {"value": {"tensor": {"dtype": "DT_BOOL", "tensorShape": {}}}, "dtype": {"type": "DT_BOOL"}}}, {"name": "StatefulPartitionedCall/assert_equal_9/All", "op": "Const", "attr": {"dtype": {"type": "DT_BOOL"}, "value": {"tensor": {"dtype": "DT_BOOL", "tensorShape": {}}}}}, {"name": "StatefulPartitionedCall/assert_equal_11/All", "op": "Const", "attr": {"dtype": {"type": "DT_BOOL"}, "value": {"tensor": {"dtype": "DT_BOOL", "tensorShape": {}}}}}, {"name": "StatefulPartitionedCall/assert_equal_13/All", "op": "Const", "attr": {"dtype": {"type": "DT_BOOL"}, "value": {"tensor": {"dtype": "DT_BOOL", "tensorShape": {}}}}}, {"name": "StatefulPartitionedCall/assert_equal_15/All", "op": "Const", "attr": {"value": {"tensor": {"dtype": "DT_BOOL", "tensorShape": {}}}, "dtype": {"type": "DT_BOOL"}}}, {"name": "StatefulPartitionedCall/assert_equal_17/All", "op": "Const", "attr": {"value": {"tensor": {"dtype": "DT_BOOL", "tensorShape": {}}}, "dtype": {"type": "DT_BOOL"}}}, {"name": "StatefulPartitionedCall/assert_equal_19/All", "op": "Const", "attr": {"dtype": {"type": "DT_BOOL"}, "value": {"tensor": {"dtype": "DT_BOOL", "tensorShape": {}}}}}, {"name": "StatefulPartitionedCall/assert_equal_21/All", "op": "Const", "attr": {"dtype": {"type": "DT_BOOL"}, "value": {"tensor": {"dtype": "DT_BOOL", "tensorShape": {}}}}}, {"name": "StatefulPartitionedCall/assert_equal_23/All", "op": "Const", "attr": {"dtype": {"type": "DT_BOOL"}, "value": {"tensor": {"dtype": "DT_BOOL", "tensorShape": {}}}}}, {"name": "StatefulPartitionedCall/assert_equal_25/All", "op": "Const", "attr": {"dtype": {"type": "DT_BOOL"}, "value": {"tensor": {"dtype": "DT_BOOL", "tensorShape": {}}}}}, {"name": "StatefulPartitionedCall/assert_equal_27/All", "op": "Const", "attr": {"dtype": {"type": "DT_BOOL"}, "value": {"tensor": {"dtype": "DT_BOOL", "tensorShape": {}}}}}, {"name": "StatefulPartitionedCall/assert_equal_29/All", "op": "Const", "attr": {"value": {"tensor": {"dtype": "DT_BOOL", "tensorShape": {}}}, "dtype": {"type": "DT_BOOL"}}}, {"name": "StatefulPartitionedCall/assert_equal_31/All", "op": "Const", "attr": {"value": {"tensor": {"dtype": "DT_BOOL", "tensorShape": {}}}, "dtype": {"type": "DT_BOOL"}}}, {"name": "StatefulPartitionedCall/assert_equal_33/All", "op": "Const", "attr": {"dtype": {"type": "DT_BOOL"}, "value": {"tensor": {"dtype": "DT_BOOL", "tensorShape": {}}}}}, {"name": "StatefulPartitionedCall/assert_equal_35/All", "op": "Const", "attr": {"value": {"tensor": {"dtype": "DT_BOOL", "tensorShape": {}}}, "dtype": {"type": "DT_BOOL"}}}, {"name": "StatefulPartitionedCall/assert_equal_37/All", "op": "Const", "attr": {"dtype": {"type": "DT_BOOL"}, "value": {"tensor": {"dtype": "DT_BOOL", "tensorShape": {}}}}}, {"name": "StatefulPartitionedCall/assert_equal_39/All", "op": "Const", "attr": {"dtype": {"type": "DT_BOOL"}, "value": {"tensor": {"dtype": "DT_BOOL", "tensorShape": {}}}}}, {"name": "StatefulPartitionedCall/assert_equal_41/All", "op": "Const", "attr": {"dtype": {"type": "DT_BOOL"}, "value": {"tensor": {"dtype": "DT_BOOL", "tensorShape": {}}}}}, {"name": "StatefulPartitionedCall/assert_equal_43/All", "op": "Const", "attr": {"dtype": {"type": "DT_BOOL"}, "value": {"tensor": {"dtype": "DT_BOOL", "tensorShape": {}}}}}, {"name": "StatefulPartitionedCall/assert_equal_45/All", "op": "Const", "attr": {"dtype": {"type": "DT_BOOL"}, "value": {"tensor": {"dtype": "DT_BOOL", "tensorShape": {}}}}}, {"name": "StatefulPartitionedCall/assert_equal_1/Assert/AssertGuard/pivot_t/_111", "op": "Const", "attr": {"dtype": {"type": "DT_BOOL"}, "value": {"tensor": {"dtype": "DT_BOOL", "tensorShape": {}}}}}, {"name": "StatefulPartitionedCall/assert_equal_1/All", "op": "Const", "attr": {"value": {"tensor": {"dtype": "DT_BOOL", "tensorShape": {}}}, "dtype": {"type": "DT_BOOL"}}}, {"name": "StatefulPartitionedCall/assert_equal_3/All", "op": "Const", "attr": {"dtype": {"type": "DT_BOOL"}, "value": {"tensor": {"dtype": "DT_BOOL", "tensorShape": {}}}}}, {"name": "StatefulPartitionedCall/assert_equal_5/All", "op": "Const", "attr": {"dtype": {"type": "DT_BOOL"}, "value": {"tensor": {"dtype": "DT_BOOL", "tensorShape": {}}}}}, {"name": "unknown", "op": "Placeholder", "attr": {"dtype": {"type": "DT_FLOAT"}, "shape": {"shape": {"dim": [{"size": "1"}, {"size": "512"}]}}}}, {"name": "StatefulPartitionedCall/assert_equal_7/Assert/AssertGuard/StatefulPartitionedCall/assert_equal_7/All/_142", "op": "Switch", "input": ["StatefulPartitionedCall/assert_equal_7/All", "StatefulPartitionedCall/assert_equal_7/All"], "attr": {"T": {"type": "DT_BOOL"}}}, {"name": "StatefulPartitionedCall/assert_equal_9/Assert/AssertGuard/StatefulPartitionedCall/assert_equal_9/All/_152", "op": "Switch", "input": ["StatefulPartitionedCall/assert_equal_9/All", "StatefulPartitionedCall/assert_equal_9/All"], "attr": {"T": {"type": "DT_BOOL"}}}, {"name": "StatefulPartitionedCall/assert_equal_11/Assert/AssertGuard/StatefulPartitionedCall/assert_equal_11/All/_162", "op": "Switch", "input": ["StatefulPartitionedCall/assert_equal_11/All", "StatefulPartitionedCall/assert_equal_11/All"], "attr": {"T": {"type": "DT_BOOL"}}}, {"name": "StatefulPartitionedCall/assert_equal_13/Assert/AssertGuard/StatefulPartitionedCall/assert_equal_13/All/_172", "op": "Switch", "input": ["StatefulPartitionedCall/assert_equal_13/All", "StatefulPartitionedCall/assert_equal_13/All"], "attr": {"T": {"type": "DT_BOOL"}}}, {"name": "StatefulPartitionedCall/assert_equal_15/Assert/AssertGuard/StatefulPartitionedCall/assert_equal_15/All/_182", "op": "Switch", "input": ["StatefulPartitionedCall/assert_equal_15/All", "StatefulPartitionedCall/assert_equal_15/All"], "attr": {"T": {"type": "DT_BOOL"}}}, {"name": "StatefulPartitionedCall/assert_equal_17/Assert/AssertGuard/StatefulPartitionedCall/assert_equal_17/All/_192", "op": "Switch", "input": ["StatefulPartitionedCall/assert_equal_17/All", "StatefulPartitionedCall/assert_equal_17/All"], "attr": {"T": {"type": "DT_BOOL"}}}, {"name": "StatefulPartitionedCall/assert_equal_19/Assert/AssertGuard/StatefulPartitionedCall/assert_equal_19/All/_202", "op": "Switch", "input": ["StatefulPartitionedCall/assert_equal_19/All", "StatefulPartitionedCall/assert_equal_19/All"], "attr": {"T": {"type": "DT_BOOL"}}}, {"name": "StatefulPartitionedCall/assert_equal_21/Assert/AssertGuard/StatefulPartitionedCall/assert_equal_21/All/_212", "op": "Switch", "input": ["StatefulPartitionedCall/assert_equal_21/All", "StatefulPartitionedCall/assert_equal_21/All"], "attr": {"T": {"type": "DT_BOOL"}}}, {"name": "StatefulPartitionedCall/assert_equal_23/Assert/AssertGuard/StatefulPartitionedCall/assert_equal_23/All/_222", "op": "Switch", "input": ["StatefulPartitionedCall/assert_equal_23/All", "StatefulPartitionedCall/assert_equal_23/All"], "attr": {"T": {"type": "DT_BOOL"}}}, {"name": "StatefulPartitionedCall/assert_equal_25/Assert/AssertGuard/StatefulPartitionedCall/assert_equal_25/All/_232", "op": "Switch", "input": ["StatefulPartitionedCall/assert_equal_25/All", "StatefulPartitionedCall/assert_equal_25/All"], "attr": {"T": {"type": "DT_BOOL"}}}, {"name": "StatefulPartitionedCall/assert_equal_27/Assert/AssertGuard/StatefulPartitionedCall/assert_equal_27/All/_242", "op": "Switch", "input": ["StatefulPartitionedCall/assert_equal_27/All", "StatefulPartitionedCall/assert_equal_27/All"], "attr": {"T": {"type": "DT_BOOL"}}}, {"name": "StatefulPartitionedCall/assert_equal_29/Assert/AssertGuard/StatefulPartitionedCall/assert_equal_29/All/_252", "op": "Switch", "input": ["StatefulPartitionedCall/assert_equal_29/All", "StatefulPartitionedCall/assert_equal_29/All"], "attr": {"T": {"type": "DT_BOOL"}}}, {"name": "StatefulPartitionedCall/assert_equal_31/Assert/AssertGuard/StatefulPartitionedCall/assert_equal_31/All/_262", "op": "Switch", "input": ["StatefulPartitionedCall/assert_equal_31/All", "StatefulPartitionedCall/assert_equal_31/All"], "attr": {"T": {"type": "DT_BOOL"}}}, {"name": "StatefulPartitionedCall/assert_equal_33/Assert/AssertGuard/StatefulPartitionedCall/assert_equal_33/All/_272", "op": "Switch", "input": ["StatefulPartitionedCall/assert_equal_33/All", "StatefulPartitionedCall/assert_equal_33/All"], "attr": {"T": {"type": "DT_BOOL"}}}, {"name": "StatefulPartitionedCall/assert_equal_35/Assert/AssertGuard/StatefulPartitionedCall/assert_equal_35/All/_282", "op": "Switch", "input": ["StatefulPartitionedCall/assert_equal_35/All", "StatefulPartitionedCall/assert_equal_35/All"], "attr": {"T": {"type": "DT_BOOL"}}}, {"name": "StatefulPartitionedCall/assert_equal_37/Assert/AssertGuard/StatefulPartitionedCall/assert_equal_37/All/_292", "op": "Switch", "input": ["StatefulPartitionedCall/assert_equal_37/All", "StatefulPartitionedCall/assert_equal_37/All"], "attr": {"T": {"type": "DT_BOOL"}}}, {"name": "StatefulPartitionedCall/assert_equal_39/Assert/AssertGuard/StatefulPartitionedCall/assert_equal_39/All/_302", "op": "Switch", "input": ["StatefulPartitionedCall/assert_equal_39/All", "StatefulPartitionedCall/assert_equal_39/All"], "attr": {"T": {"type": "DT_BOOL"}}}, {"name": "StatefulPartitionedCall/assert_equal_41/Assert/AssertGuard/StatefulPartitionedCall/assert_equal_41/All/_312", "op": "Switch", "input": ["StatefulPartitionedCall/assert_equal_41/All", "StatefulPartitionedCall/assert_equal_41/All"], "attr": {"T": {"type": "DT_BOOL"}}}, {"name": "StatefulPartitionedCall/assert_equal_43/Assert/AssertGuard/StatefulPartitionedCall/assert_equal_43/All/_322", "op": "Switch", "input": ["StatefulPartitionedCall/assert_equal_43/All", "StatefulPartitionedCall/assert_equal_43/All"], "attr": {"T": {"type": "DT_BOOL"}}}, {"name": "StatefulPartitionedCall/assert_equal_45/Assert/AssertGuard/StatefulPartitionedCall/assert_equal_45/All/_332", "op": "Switch", "input": ["StatefulPartitionedCall/assert_equal_45/All", "StatefulPartitionedCall/assert_equal_45/All"], "attr": {"T": {"type": "DT_BOOL"}}}, {"name": "StatefulPartitionedCall/assert_equal_1/Assert/AssertGuard/switch_pred/_109", "op": "Switch", "input": ["StatefulPartitionedCall/assert_equal_1/All", "StatefulPartitionedCall/assert_equal_1/All"], "attr": {"T": {"type": "DT_BOOL"}}}, {"name": "StatefulPartitionedCall/assert_equal_3/Assert/AssertGuard/StatefulPartitionedCall/assert_equal_3/All/_122", "op": "Switch", "input": ["StatefulPartitionedCall/assert_equal_3/All", "StatefulPartitionedCall/assert_equal_3/All"], "attr": {"T": {"type": "DT_BOOL"}}}, {"name": "StatefulPartitionedCall/assert_equal_5/Assert/AssertGuard/StatefulPartitionedCall/assert_equal_5/All/_132", "op": "Switch", "input": ["StatefulPartitionedCall/assert_equal_5/All", "StatefulPartitionedCall/assert_equal_5/All"], "attr": {"T": {"type": "DT_BOOL"}}}, {"name": "StatefulPartitionedCall/onnx_tf_prefix_Pow_0", "op": "Square", "input": ["unknown"], "attr": {"T": {"type": "DT_FLOAT"}}}, {"name": "ConstantFoldingCtrl/StatefulPartitionedCall/assert_equal_7/Assert/AssertGuard/StatefulPartitionedCall/assert_equal_7/All/_142_0", "op": "Identity", "input": ["StatefulPartitionedCall/assert_equal_7/Assert/AssertGuard/StatefulPartitionedCall/assert_equal_7/All/_142"], "attr": {"T": {"type": "DT_BOOL"}}}, {"name": "ConstantFoldingCtrl/StatefulPartitionedCall/assert_equal_9/Assert/AssertGuard/StatefulPartitionedCall/assert_equal_9/All/_152_0", "op": "Identity", "input": ["StatefulPartitionedCall/assert_equal_9/Assert/AssertGuard/StatefulPartitionedCall/assert_equal_9/All/_152"], "attr": {"T": {"type": "DT_BOOL"}}}, {"name": "ConstantFoldingCtrl/StatefulPartitionedCall/assert_equal_11/Assert/AssertGuard/StatefulPartitionedCall/assert_equal_11/All/_162_0", "op": "Identity", "input": ["StatefulPartitionedCall/assert_equal_11/Assert/AssertGuard/StatefulPartitionedCall/assert_equal_11/All/_162"], "attr": {"T": {"type": "DT_BOOL"}}}, {"name": "ConstantFoldingCtrl/StatefulPartitionedCall/assert_equal_13/Assert/AssertGuard/StatefulPartitionedCall/assert_equal_13/All/_172_0", "op": "Identity", "input": ["StatefulPartitionedCall/assert_equal_13/Assert/AssertGuard/StatefulPartitionedCall/assert_equal_13/All/_172"], "attr": {"T": {"type": "DT_BOOL"}}}, {"name": "ConstantFoldingCtrl/StatefulPartitionedCall/assert_equal_15/Assert/AssertGuard/StatefulPartitionedCall/assert_equal_15/All/_182_0", "op": "Identity", "input": ["StatefulPartitionedCall/assert_equal_15/Assert/AssertGuard/StatefulPartitionedCall/assert_equal_15/All/_182"], "attr": {"T": {"type": "DT_BOOL"}}}, {"name": "ConstantFoldingCtrl/StatefulPartitionedCall/assert_equal_17/Assert/AssertGuard/StatefulPartitionedCall/assert_equal_17/All/_192_0", "op": "Identity", "input": ["StatefulPartitionedCall/assert_equal_17/Assert/AssertGuard/StatefulPartitionedCall/assert_equal_17/All/_192"], "attr": {"T": {"type": "DT_BOOL"}}}, {"name": "ConstantFoldingCtrl/StatefulPartitionedCall/assert_equal_19/Assert/AssertGuard/StatefulPartitionedCall/assert_equal_19/All/_202_0", "op": "Identity", "input": ["StatefulPartitionedCall/assert_equal_19/Assert/AssertGuard/StatefulPartitionedCall/assert_equal_19/All/_202"], "attr": {"T": {"type": "DT_BOOL"}}}, {"name": "ConstantFoldingCtrl/StatefulPartitionedCall/assert_equal_21/Assert/AssertGuard/StatefulPartitionedCall/assert_equal_21/All/_212_0", "op": "Identity", "input": ["StatefulPartitionedCall/assert_equal_21/Assert/AssertGuard/StatefulPartitionedCall/assert_equal_21/All/_212"], "attr": {"T": {"type": "DT_BOOL"}}}, {"name": "ConstantFoldingCtrl/StatefulPartitionedCall/assert_equal_23/Assert/AssertGuard/StatefulPartitionedCall/assert_equal_23/All/_222_0", "op": "Identity", "input": ["StatefulPartitionedCall/assert_equal_23/Assert/AssertGuard/StatefulPartitionedCall/assert_equal_23/All/_222"], "attr": {"T": {"type": "DT_BOOL"}}}, {"name": "ConstantFoldingCtrl/StatefulPartitionedCall/assert_equal_25/Assert/AssertGuard/StatefulPartitionedCall/assert_equal_25/All/_232_0", "op": "Identity", "input": ["StatefulPartitionedCall/assert_equal_25/Assert/AssertGuard/StatefulPartitionedCall/assert_equal_25/All/_232"], "attr": {"T": {"type": "DT_BOOL"}}}, {"name": "ConstantFoldingCtrl/StatefulPartitionedCall/assert_equal_27/Assert/AssertGuard/StatefulPartitionedCall/assert_equal_27/All/_242_0", "op": "Identity", "input": ["StatefulPartitionedCall/assert_equal_27/Assert/AssertGuard/StatefulPartitionedCall/assert_equal_27/All/_242"], "attr": {"T": {"type": "DT_BOOL"}}}, {"name": "ConstantFoldingCtrl/StatefulPartitionedCall/assert_equal_29/Assert/AssertGuard/StatefulPartitionedCall/assert_equal_29/All/_252_0", "op": "Identity", "input": ["StatefulPartitionedCall/assert_equal_29/Assert/AssertGuard/StatefulPartitionedCall/assert_equal_29/All/_252"], "attr": {"T": {"type": "DT_BOOL"}}}, {"name": "ConstantFoldingCtrl/StatefulPartitionedCall/assert_equal_31/Assert/AssertGuard/StatefulPartitionedCall/assert_equal_31/All/_262_0", "op": "Identity", "input": ["StatefulPartitionedCall/assert_equal_31/Assert/AssertGuard/StatefulPartitionedCall/assert_equal_31/All/_262"], "attr": {"T": {"type": "DT_BOOL"}}}, {"name": "ConstantFoldingCtrl/StatefulPartitionedCall/assert_equal_33/Assert/AssertGuard/StatefulPartitionedCall/assert_equal_33/All/_272_0", "op": "Identity", "input": ["StatefulPartitionedCall/assert_equal_33/Assert/AssertGuard/StatefulPartitionedCall/assert_equal_33/All/_272"], "attr": {"T": {"type": "DT_BOOL"}}}, {"name": "ConstantFoldingCtrl/StatefulPartitionedCall/assert_equal_35/Assert/AssertGuard/StatefulPartitionedCall/assert_equal_35/All/_282_0", "op": "Identity", "input": ["StatefulPartitionedCall/assert_equal_35/Assert/AssertGuard/StatefulPartitionedCall/assert_equal_35/All/_282"], "attr": {"T": {"type": "DT_BOOL"}}}, {"name": "ConstantFoldingCtrl/StatefulPartitionedCall/assert_equal_37/Assert/AssertGuard/StatefulPartitionedCall/assert_equal_37/All/_292_0", "op": "Identity", "input": ["StatefulPartitionedCall/assert_equal_37/Assert/AssertGuard/StatefulPartitionedCall/assert_equal_37/All/_292"], "attr": {"T": {"type": "DT_BOOL"}}}, {"name": "ConstantFoldingCtrl/StatefulPartitionedCall/assert_equal_39/Assert/AssertGuard/StatefulPartitionedCall/assert_equal_39/All/_302_0", "op": "Identity", "input": ["StatefulPartitionedCall/assert_equal_39/Assert/AssertGuard/StatefulPartitionedCall/assert_equal_39/All/_302"], "attr": {"T": {"type": "DT_BOOL"}}}, {"name": "ConstantFoldingCtrl/StatefulPartitionedCall/assert_equal_41/Assert/AssertGuard/StatefulPartitionedCall/assert_equal_41/All/_312_0", "op": "Identity", "input": ["StatefulPartitionedCall/assert_equal_41/Assert/AssertGuard/StatefulPartitionedCall/assert_equal_41/All/_312"], "attr": {"T": {"type": "DT_BOOL"}}}, {"name": "ConstantFoldingCtrl/StatefulPartitionedCall/assert_equal_43/Assert/AssertGuard/StatefulPartitionedCall/assert_equal_43/All/_322_0", "op": "Identity", "input": ["StatefulPartitionedCall/assert_equal_43/Assert/AssertGuard/StatefulPartitionedCall/assert_equal_43/All/_322"], "attr": {"T": {"type": "DT_BOOL"}}}, {"name": "ConstantFoldingCtrl/StatefulPartitionedCall/assert_equal_45/Assert/AssertGuard/StatefulPartitionedCall/assert_equal_45/All/_332_0", "op": "Identity", "input": ["StatefulPartitionedCall/assert_equal_45/Assert/AssertGuard/StatefulPartitionedCall/assert_equal_45/All/_332"], "attr": {"T": {"type": "DT_BOOL"}}}, {"name": "StatefulPartitionedCall/assert_equal_1/Assert/AssertGuard/branch_executed/_116", "op": "Merge", "input": ["StatefulPartitionedCall/assert_equal_1/Assert/AssertGuard/pivot_t/_111", "StatefulPartitionedCall/assert_equal_1/Assert/AssertGuard/switch_pred/_109"], "attr": {"N": {"i": "2"}, "T": {"type": "DT_BOOL"}}}, {"name": "ConstantFoldingCtrl/StatefulPartitionedCall/assert_equal_3/Assert/AssertGuard/StatefulPartitionedCall/assert_equal_3/All/_122_0", "op": "Identity", "input": ["StatefulPartitionedCall/assert_equal_3/Assert/AssertGuard/StatefulPartitionedCall/assert_equal_3/All/_122"], "attr": {"T": {"type": "DT_BOOL"}}}, {"name": "ConstantFoldingCtrl/StatefulPartitionedCall/assert_equal_5/Assert/AssertGuard/StatefulPartitionedCall/assert_equal_5/All/_132_0", "op": "Identity", "input": ["StatefulPartitionedCall/assert_equal_5/Assert/AssertGuard/StatefulPartitionedCall/assert_equal_5/All/_132"], "attr": {"T": {"type": "DT_BOOL"}}}, {"name": "StatefulPartitionedCall/onnx_tf_prefix_ReduceMean_1", "op": "Mean", "input": ["StatefulPartitionedCall/onnx_tf_prefix_Pow_0", "StatefulPartitionedCall/onnx_tf_prefix_ReduceMean_1/reduction_indices"], "attr": {"Tidx": {"type": "DT_INT32"}, "T": {"type": "DT_FLOAT"}, "keep_dims": {"b": true}}}, {"name": "StatefulPartitionedCall/assert_equal_3/Assert/AssertGuard/pivot_t/_121", "op": "Const", "input": ["^StatefulPartitionedCall/assert_equal_1/Assert/AssertGuard/branch_executed/_116"], "attr": {"value": {"tensor": {"dtype": "DT_BOOL", "tensorShape": {}}}, "dtype": {"type": "DT_BOOL"}}}, {"name": "StatefulPartitionedCall/assert_equal_3/Assert/AssertGuard/switch_pred/_119", "op": "Switch", "input": ["StatefulPartitionedCall/assert_equal_3/All", "StatefulPartitionedCall/assert_equal_3/All", "^StatefulPartitionedCall/assert_equal_1/Assert/AssertGuard/branch_executed/_116"], "attr": {"T": {"type": "DT_BOOL"}}}, {"name": "StatefulPartitionedCall/onnx_tf_prefix_Add_3", "op": "AddV2", "input": ["StatefulPartitionedCall/onnx_tf_prefix_ReduceMean_1", "StatefulPartitionedCall/onnx_tf_prefix_Constant_2"], "attr": {"T": {"type": "DT_FLOAT"}}}, {"name": "Func/StatefulPartitionedCall/assert_equal_3/Assert/AssertGuard/then/_117/output/_353", "op": "Const", "input": ["^StatefulPartitionedCall/assert_equal_3/Assert/AssertGuard/pivot_t/_121"], "attr": {"value": {"tensor": {"dtype": "DT_BOOL", "tensorShape": {}}}, "dtype": {"type": "DT_BOOL"}}}, {"name": "StatefulPartitionedCall/assert_equal_3/Assert/AssertGuard/pivot_f/_120", "op": "Identity", "input": ["StatefulPartitionedCall/assert_equal_3/Assert/AssertGuard/switch_pred/_119"], "attr": {"T": {"type": "DT_BOOL"}}}, {"name": "StatefulPartitionedCall/onnx_tf_prefix_Sqrt_4", "op": "Rsqrt", "input": ["StatefulPartitionedCall/onnx_tf_prefix_Add_3"], "attr": {"T": {"type": "DT_FLOAT"}}}, {"name": "StatefulPartitionedCall/assert_equal_3/Assert/AssertGuard/branch_executed/_126", "op": "Merge", "input": ["StatefulPartitionedCall/assert_equal_3/Assert/AssertGuard/pivot_t/_121", "StatefulPartitionedCall/assert_equal_3/Assert/AssertGuard/pivot_f/_120", "^ConstantFoldingCtrl/StatefulPartitionedCall/assert_equal_3/Assert/AssertGuard/StatefulPartitionedCall/assert_equal_3/All/_122_0"], "attr": {"N": {"i": "2"}, "T": {"type": "DT_BOOL"}}}, {"name": "StatefulPartitionedCall/assert_equal_3/Assert/AssertGuard/else/_118/assert_equal_3/Assert/AssertGuard/Identity_1", "op": "Const", "input": ["^StatefulPartitionedCall/assert_equal_3/Assert/AssertGuard/pivot_f/_120", "^ConstantFoldingCtrl/StatefulPartitionedCall/assert_equal_3/Assert/AssertGuard/StatefulPartitionedCall/assert_equal_3/All/_122_0"], "attr": {"value": {"tensor": {"dtype": "DT_BOOL", "tensorShape": {}}}, "dtype": {"type": "DT_BOOL"}}}, {"name": "StatefulPartitionedCall/onnx_tf_prefix_Div_6", "op": "Mul", "input": ["StatefulPartitionedCall/onnx_tf_prefix_Constant_5", "StatefulPartitionedCall/onnx_tf_prefix_Sqrt_4"], "attr": {"T": {"type": "DT_FLOAT"}}}, {"name": "StatefulPartitionedCall/assert_equal_5/Assert/AssertGuard/pivot_t/_131", "op": "Const", "input": ["^StatefulPartitionedCall/assert_equal_3/Assert/AssertGuard/branch_executed/_126"], "attr": {"value": {"tensor": {"dtype": "DT_BOOL", "tensorShape": {}}}, "dtype": {"type": "DT_BOOL"}}}, {"name": "StatefulPartitionedCall/assert_equal_5/Assert/AssertGuard/switch_pred/_129", "op": "Switch", "input": ["StatefulPartitionedCall/assert_equal_5/All", "StatefulPartitionedCall/assert_equal_5/All", "^StatefulPartitionedCall/assert_equal_3/Assert/AssertGuard/branch_executed/_126"], "attr": {"T": {"type": "DT_BOOL"}}}, {"name": "StatefulPartitionedCall/assert_equal_3/Assert/AssertGuard/output/_125", "op": "Merge", "input": ["Func/StatefulPartitionedCall/assert_equal_3/Assert/AssertGuard/then/_117/output/_353", "StatefulPartitionedCall/assert_equal_3/Assert/AssertGuard/else/_118/assert_equal_3/Assert/AssertGuard/Identity_1"], "attr": {"T": {"type": "DT_BOOL"}, "N": {"i": "2"}}}, {"name": "StatefulPartitionedCall/onnx_tf_prefix_Mul_7", "op": "Mul", "input": ["unknown", "StatefulPartitionedCall/onnx_tf_prefix_Div_6"], "attr": {"T": {"type": "DT_FLOAT"}}}, {"name": "Func/StatefulPartitionedCall/assert_equal_5/Assert/AssertGuard/then/_127/output/_365", "op": "Const", "input": ["^StatefulPartitionedCall/assert_equal_5/Assert/AssertGuard/pivot_t/_131"], "attr": {"value": {"tensor": {"dtype": "DT_BOOL", "tensorShape": {}}}, "dtype": {"type": "DT_BOOL"}}}, {"name": "StatefulPartitionedCall/assert_equal_5/Assert/AssertGuard/pivot_f/_130", "op": "Identity", "input": ["StatefulPartitionedCall/assert_equal_5/Assert/AssertGuard/switch_pred/_129"], "attr": {"T": {"type": "DT_BOOL"}}}, {"name": "StatefulPartitionedCall/onnx_tf_prefix_Concat_24", "op": "Const", "input": ["^StatefulPartitionedCall/assert_equal_3/Assert/AssertGuard/output/_125"], "attr": {"dtype": {"type": "DT_INT64"}, "value": {"tensor": {"dtype": "DT_INT64", "tensorShape": {"dim": [{"size": "4"}]}}}}}, {"name": "StatefulPartitionedCall/Where_1", "op": "Const", "input": ["^StatefulPartitionedCall/assert_equal_3/Assert/AssertGuard/output/_125"], "attr": {"value": {"tensor": {"dtype": "DT_INT64", "tensorShape": {"dim": [{}, {"size": "1"}]}}}, "dtype": {"type": "DT_INT64"}}}, {"name": "StatefulPartitionedCall/GatherV2_1", "op": "Const", "input": ["^StatefulPartitionedCall/assert_equal_3/Assert/AssertGuard/output/_125"], "attr": {"value": {"tensor": {"dtype": "DT_INT64", "tensorShape": {"dim": [{}]}}}, "dtype": {"type": "DT_INT64"}}}, {"name": "StatefulPartitionedCall/flatten/Reshape", "op": "Reshape", "input": ["StatefulPartitionedCall/onnx_tf_prefix_Mul_7", "StatefulPartitionedCall/flatten/Const"], "attr": {"Tshape": {"type": "DT_INT32"}, "T": {"type": "DT_FLOAT"}}}, {"name": "StatefulPartitionedCall/assert_equal_5/Assert/AssertGuard/branch_executed/_136", "op": "Merge", "input": ["StatefulPartitionedCall/assert_equal_5/Assert/AssertGuard/pivot_t/_131", "StatefulPartitionedCall/assert_equal_5/Assert/AssertGuard/pivot_f/_130", "^ConstantFoldingCtrl/StatefulPartitionedCall/assert_equal_5/Assert/AssertGuard/StatefulPartitionedCall/assert_equal_5/All/_132_0"], "attr": {"N": {"i": "2"}, "T": {"type": "DT_BOOL"}}}, {"name": "StatefulPartitionedCall/assert_equal_5/Assert/AssertGuard/else/_128/assert_equal_5/Assert/AssertGuard/Identity_1", "op": "Const", "input": ["^StatefulPartitionedCall/assert_equal_5/Assert/AssertGuard/pivot_f/_130", "^ConstantFoldingCtrl/StatefulPartitionedCall/assert_equal_5/Assert/AssertGuard/StatefulPartitionedCall/assert_equal_5/All/_132_0"], "attr": {"value": {"tensor": {"dtype": "DT_BOOL", "tensorShape": {}}}, "dtype": {"type": "DT_BOOL"}}}, {"name": "StatefulPartitionedCall/SparseToDense_1", "op": "SparseToDense", "input": ["StatefulPartitionedCall/Where_1", "StatefulPartitionedCall/Cast_5", "StatefulPartitionedCall/GatherV2_1", "StatefulPartitionedCall/zeros_1"], "attr": {"Tindices": {"type": "DT_INT64"}, "validate_indices": {"b": true}, "T": {"type": "DT_INT64"}}}, {"name": "StatefulPartitionedCall/MatMul", "op": "MatMul", "input": ["StatefulPartitionedCall/flatten/Reshape", "StatefulPartitionedCall/transpose"], "device": "/device:CPU:0", "attr": {"transpose_a": {"b": false}, "T": {"type": "DT_FLOAT"}, "transpose_b": {"b": false}}}, {"name": "StatefulPartitionedCall/assert_equal_7/Assert/AssertGuard/pivot_t/_141", "op": "Const", "input": ["^StatefulPartitionedCall/assert_equal_5/Assert/AssertGuard/branch_executed/_136"], "attr": {"value": {"tensor": {"dtype": "DT_BOOL", "tensorShape": {}}}, "dtype": {"type": "DT_BOOL"}}}, {"name": "StatefulPartitionedCall/assert_equal_7/Assert/AssertGuard/switch_pred/_139", "op": "Switch", "input": ["StatefulPartitionedCall/assert_equal_7/All", "StatefulPartitionedCall/assert_equal_7/All", "^StatefulPartitionedCall/assert_equal_5/Assert/AssertGuard/branch_executed/_136"], "attr": {"T": {"type": "DT_BOOL"}}}, {"name": "StatefulPartitionedCall/assert_equal_5/Assert/AssertGuard/output/_135", "op": "Merge", "input": ["Func/StatefulPartitionedCall/assert_equal_5/Assert/AssertGuard/then/_127/output/_365", "StatefulPartitionedCall/assert_equal_5/Assert/AssertGuard/else/_128/assert_equal_5/Assert/AssertGuard/Identity_1"], "attr": {"N": {"i": "2"}, "T": {"type": "DT_BOOL"}}}, {"name": "StatefulPartitionedCall/add_4", "op": "AddV2", "input": ["StatefulPartitionedCall/onnx_tf_prefix_Concat_24", "StatefulPartitionedCall/SparseToDense_1"], "attr": {"T": {"type": "DT_INT64"}}}, {"name": "StatefulPartitionedCall/add_2", "op": "AddV2", "input": ["StatefulPartitionedCall/MatMul", "StatefulPartitionedCall/mul_1"], "attr": {"T": {"type": "DT_FLOAT"}}}, {"name": "Func/StatefulPartitionedCall/assert_equal_7/Assert/AssertGuard/then/_137/output/_377", "op": "Const", "input": ["^StatefulPartitionedCall/assert_equal_7/Assert/AssertGuard/pivot_t/_141"], "attr": {"value": {"tensor": {"dtype": "DT_BOOL", "tensorShape": {}}}, "dtype": {"type": "DT_BOOL"}}}, {"name": "StatefulPartitionedCall/assert_equal_7/Assert/AssertGuard/pivot_f/_140", "op": "Identity", "input": ["StatefulPartitionedCall/assert_equal_7/Assert/AssertGuard/switch_pred/_139"], "attr": {"T": {"type": "DT_BOOL"}}}, {"name": "StatefulPartitionedCall/onnx_tf_prefix_Mul_18", "op": "Mul", "input": ["StatefulPartitionedCall/add_2", "StatefulPartitionedCall/onnx_tf_prefix_Constant_17"], "attr": {"T": {"type": "DT_FLOAT"}}}, {"name": "StatefulPartitionedCall/assert_equal_7/Assert/AssertGuard/branch_executed/_146", "op": "Merge", "input": ["StatefulPartitionedCall/assert_equal_7/Assert/AssertGuard/pivot_t/_141", "StatefulPartitionedCall/assert_equal_7/Assert/AssertGuard/pivot_f/_140", "^ConstantFoldingCtrl/StatefulPartitionedCall/assert_equal_7/Assert/AssertGuard/StatefulPartitionedCall/assert_equal_7/All/_142_0"], "attr": {"N": {"i": "2"}, "T": {"type": "DT_BOOL"}}}, {"name": "StatefulPartitionedCall/assert_equal_7/Assert/AssertGuard/else/_138/assert_equal_7/Assert/AssertGuard/Identity_1", "op": "Const", "input": ["^StatefulPartitionedCall/assert_equal_7/Assert/AssertGuard/pivot_f/_140", "^ConstantFoldingCtrl/StatefulPartitionedCall/assert_equal_7/Assert/AssertGuard/StatefulPartitionedCall/assert_equal_7/All/_142_0"], "attr": {"value": {"tensor": {"dtype": "DT_BOOL", "tensorShape": {}}}, "dtype": {"type": "DT_BOOL"}}}, {"name": "StatefulPartitionedCall/onnx_tf_prefix_LeakyRelu_19", "op": "LeakyRelu", "input": ["StatefulPartitionedCall/onnx_tf_prefix_Mul_18"], "attr": {"alpha": {"f": 0.2}, "T": {"type": "DT_FLOAT"}}}, {"name": "StatefulPartitionedCall/assert_equal_9/Assert/AssertGuard/pivot_t/_151", "op": "Const", "input": ["^StatefulPartitionedCall/assert_equal_7/Assert/AssertGuard/branch_executed/_146"], "attr": {"dtype": {"type": "DT_BOOL"}, "value": {"tensor": {"dtype": "DT_BOOL", "tensorShape": {}}}}}, {"name": "StatefulPartitionedCall/assert_equal_9/Assert/AssertGuard/switch_pred/_149", "op": "Switch", "input": ["StatefulPartitionedCall/assert_equal_9/All", "StatefulPartitionedCall/assert_equal_9/All", "^StatefulPartitionedCall/assert_equal_7/Assert/AssertGuard/branch_executed/_146"], "attr": {"T": {"type": "DT_BOOL"}}}, {"name": "StatefulPartitionedCall/assert_equal_7/Assert/AssertGuard/output/_145", "op": "Merge", "input": ["Func/StatefulPartitionedCall/assert_equal_7/Assert/AssertGuard/then/_137/output/_377", "StatefulPartitionedCall/assert_equal_7/Assert/AssertGuard/else/_138/assert_equal_7/Assert/AssertGuard/Identity_1"], "attr": {"N": {"i": "2"}, "T": {"type": "DT_BOOL"}}}, {"name": "StatefulPartitionedCall/onnx_tf_prefix_Reshape_25", "op": "Reshape", "input": ["StatefulPartitionedCall/onnx_tf_prefix_LeakyRelu_19", "StatefulPartitionedCall/add_4"], "attr": {"Tshape": {"type": "DT_INT64"}, "T": {"type": "DT_FLOAT"}}}, {"name": "Func/StatefulPartitionedCall/assert_equal_9/Assert/AssertGuard/then/_147/output/_389", "op": "Const", "input": ["^StatefulPartitionedCall/assert_equal_9/Assert/AssertGuard/pivot_t/_151"], "attr": {"value": {"tensor": {"dtype": "DT_BOOL", "tensorShape": {}}}, "dtype": {"type": "DT_BOOL"}}}, {"name": "StatefulPartitionedCall/assert_equal_9/Assert/AssertGuard/pivot_f/_150", "op": "Identity", "input": ["StatefulPartitionedCall/assert_equal_9/Assert/AssertGuard/switch_pred/_149"], "attr": {"T": {"type": "DT_BOOL"}}}, {"name": "StatefulPartitionedCall/onnx_tf_prefix_Pow_26", "op": "Square", "input": ["StatefulPartitionedCall/onnx_tf_prefix_Reshape_25"], "attr": {"T": {"type": "DT_FLOAT"}}}, {"name": "StatefulPartitionedCall/assert_equal_9/Assert/AssertGuard/branch_executed/_156", "op": "Merge", "input": ["StatefulPartitionedCall/assert_equal_9/Assert/AssertGuard/pivot_t/_151", "StatefulPartitionedCall/assert_equal_9/Assert/AssertGuard/pivot_f/_150", "^ConstantFoldingCtrl/StatefulPartitionedCall/assert_equal_9/Assert/AssertGuard/StatefulPartitionedCall/assert_equal_9/All/_152_0"], "attr": {"N": {"i": "2"}, "T": {"type": "DT_BOOL"}}}, {"name": "StatefulPartitionedCall/assert_equal_9/Assert/AssertGuard/else/_148/assert_equal_9/Assert/AssertGuard/Identity_1", "op": "Const", "input": ["^StatefulPartitionedCall/assert_equal_9/Assert/AssertGuard/pivot_f/_150", "^ConstantFoldingCtrl/StatefulPartitionedCall/assert_equal_9/Assert/AssertGuard/StatefulPartitionedCall/assert_equal_9/All/_152_0"], "attr": {"value": {"tensor": {"dtype": "DT_BOOL", "tensorShape": {}}}, "dtype": {"type": "DT_BOOL"}}}, {"name": "StatefulPartitionedCall/onnx_tf_prefix_ReduceMean_27", "op": "Mean", "input": ["StatefulPartitionedCall/onnx_tf_prefix_Pow_26", "StatefulPartitionedCall/onnx_tf_prefix_ReduceMean_27/reduction_indices"], "attr": {"Tidx": {"type": "DT_INT32"}, "keep_dims": {"b": true}, "T": {"type": "DT_FLOAT"}}}, {"name": "StatefulPartitionedCall/assert_equal_11/Assert/AssertGuard/pivot_t/_161", "op": "Const", "input": ["^StatefulPartitionedCall/assert_equal_9/Assert/AssertGuard/branch_executed/_156"], "attr": {"value": {"tensor": {"dtype": "DT_BOOL", "tensorShape": {}}}, "dtype": {"type": "DT_BOOL"}}}, {"name": "StatefulPartitionedCall/assert_equal_11/Assert/AssertGuard/switch_pred/_159", "op": "Switch", "input": ["StatefulPartitionedCall/assert_equal_11/All", "StatefulPartitionedCall/assert_equal_11/All", "^StatefulPartitionedCall/assert_equal_9/Assert/AssertGuard/branch_executed/_156"], "attr": {"T": {"type": "DT_BOOL"}}}, {"name": "StatefulPartitionedCall/assert_equal_9/Assert/AssertGuard/output/_155", "op": "Merge", "input": ["Func/StatefulPartitionedCall/assert_equal_9/Assert/AssertGuard/then/_147/output/_389", "StatefulPartitionedCall/assert_equal_9/Assert/AssertGuard/else/_148/assert_equal_9/Assert/AssertGuard/Identity_1"], "attr": {"N": {"i": "2"}, "T": {"type": "DT_BOOL"}}}, {"name": "StatefulPartitionedCall/onnx_tf_prefix_Add_29", "op": "AddV2", "input": ["StatefulPartitionedCall/onnx_tf_prefix_ReduceMean_27", "StatefulPartitionedCall/onnx_tf_prefix_Constant_28"], "attr": {"T": {"type": "DT_FLOAT"}}}, {"name": "Func/StatefulPartitionedCall/assert_equal_11/Assert/AssertGuard/then/_157/output/_401", "op": "Const", "input": ["^StatefulPartitionedCall/assert_equal_11/Assert/AssertGuard/pivot_t/_161"], "attr": {"value": {"tensor": {"dtype": "DT_BOOL", "tensorShape": {}}}, "dtype": {"type": "DT_BOOL"}}}, {"name": "StatefulPartitionedCall/assert_equal_11/Assert/AssertGuard/pivot_f/_160", "op": "Identity", "input": ["StatefulPartitionedCall/assert_equal_11/Assert/AssertGuard/switch_pred/_159"], "attr": {"T": {"type": "DT_BOOL"}}}, {"name": "StatefulPartitionedCall/onnx_tf_prefix_Concat_58", "op": "Const", "input": ["^StatefulPartitionedCall/assert_equal_5/Assert/AssertGuard/output/_135", "^StatefulPartitionedCall/assert_equal_7/Assert/AssertGuard/output/_145", "^StatefulPartitionedCall/assert_equal_9/Assert/AssertGuard/output/_155"], "attr": {"dtype": {"type": "DT_INT64"}, "value": {"tensor": {"dtype": "DT_INT64", "tensorShape": {"dim": [{"size": "6"}]}}}}}, {"name": "StatefulPartitionedCall/Where_2", "op": "Const", "input": ["^StatefulPartitionedCall/assert_equal_5/Assert/AssertGuard/output/_135", "^StatefulPartitionedCall/assert_equal_7/Assert/AssertGuard/output/_145", "^StatefulPartitionedCall/assert_equal_9/Assert/AssertGuard/output/_155"], "attr": {"value": {"tensor": {"dtype": "DT_INT64", "tensorShape": {"dim": [{}, {"size": "1"}]}}}, "dtype": {"type": "DT_INT64"}}}, {"name": "StatefulPartitionedCall/GatherV2_2", "op": "Const", "input": ["^StatefulPartitionedCall/assert_equal_5/Assert/AssertGuard/output/_135", "^StatefulPartitionedCall/assert_equal_7/Assert/AssertGuard/output/_145", "^StatefulPartitionedCall/assert_equal_9/Assert/AssertGuard/output/_155"], "attr": {"dtype": {"type": "DT_INT64"}, "value": {"tensor": {"dtype": "DT_INT64", "tensorShape": {"dim": [{}]}}}}}, {"name": "StatefulPartitionedCall/ones", "op": "Const", "input": ["^StatefulPartitionedCall/assert_equal_5/Assert/AssertGuard/output/_135", "^StatefulPartitionedCall/assert_equal_7/Assert/AssertGuard/output/_145", "^StatefulPartitionedCall/assert_equal_9/Assert/AssertGuard/output/_155"], "attr": {"dtype": {"type": "DT_FLOAT"}, "value": {"tensor": {"dtype": "DT_FLOAT", "tensorShape": {"dim": [{"size": "1"}, {"size": "512"}, {"size": "4"}, {"size": "2"}, {"size": "4"}, {"size": "2"}]}}}}}, {"name": "StatefulPartitionedCall/onnx_tf_prefix_Concat_81", "op": "Const", "input": ["^StatefulPartitionedCall/assert_equal_5/Assert/AssertGuard/output/_135", "^StatefulPartitionedCall/assert_equal_7/Assert/AssertGuard/output/_145", "^StatefulPartitionedCall/assert_equal_9/Assert/AssertGuard/output/_155"], "attr": {"dtype": {"type": "DT_INT64"}, "value": {"tensor": {"dtype": "DT_INT64", "tensorShape": {"dim": [{"size": "4"}]}}}}}, {"name": "StatefulPartitionedCall/Where_4", "op": "Const", "input": ["^StatefulPartitionedCall/assert_equal_5/Assert/AssertGuard/output/_135", "^StatefulPartitionedCall/assert_equal_7/Assert/AssertGuard/output/_145", "^StatefulPartitionedCall/assert_equal_9/Assert/AssertGuard/output/_155"], "attr": {"value": {"tensor": {"dtype": "DT_INT64", "tensorShape": {"dim": [{}, {"size": "1"}]}}}, "dtype": {"type": "DT_INT64"}}}, {"name": "StatefulPartitionedCall/GatherV2_4", "op": "Const", "input": ["^StatefulPartitionedCall/assert_equal_5/Assert/AssertGuard/output/_135", "^StatefulPartitionedCall/assert_equal_7/Assert/AssertGuard/output/_145", "^StatefulPartitionedCall/assert_equal_9/Assert/AssertGuard/output/_155"], "attr": {"value": {"tensor": {"dtype": "DT_INT64", "tensorShape": {"dim": [{}]}}}, "dtype": {"type": "DT_INT64"}}}, {"name": "StatefulPartitionedCall/onnx_tf_prefix_Sqrt_30", "op": "Sqrt", "input": ["StatefulPartitionedCall/onnx_tf_prefix_Add_29"], "attr": {"T": {"type": "DT_FLOAT"}}}, {"name": "StatefulPartitionedCall/assert_equal_11/Assert/AssertGuard/branch_executed/_166", "op": "Merge", "input": ["StatefulPartitionedCall/assert_equal_11/Assert/AssertGuard/pivot_t/_161", "StatefulPartitionedCall/assert_equal_11/Assert/AssertGuard/pivot_f/_160", "^ConstantFoldingCtrl/StatefulPartitionedCall/assert_equal_11/Assert/AssertGuard/StatefulPartitionedCall/assert_equal_11/All/_162_0"], "attr": {"N": {"i": "2"}, "T": {"type": "DT_BOOL"}}}, {"name": "StatefulPartitionedCall/assert_equal_11/Assert/AssertGuard/else/_158/assert_equal_11/Assert/AssertGuard/Identity_1", "op": "Const", "input": ["^StatefulPartitionedCall/assert_equal_11/Assert/AssertGuard/pivot_f/_160", "^ConstantFoldingCtrl/StatefulPartitionedCall/assert_equal_11/Assert/AssertGuard/StatefulPartitionedCall/assert_equal_11/All/_162_0"], "attr": {"value": {"tensor": {"dtype": "DT_BOOL", "tensorShape": {}}}, "dtype": {"type": "DT_BOOL"}}}, {"name": "StatefulPartitionedCall/SparseToDense_2", "op": "SparseToDense", "input": ["StatefulPartitionedCall/Where_2", "StatefulPartitionedCall/Cast_12", "StatefulPartitionedCall/GatherV2_2", "StatefulPartitionedCall/zeros_2"], "attr": {"Tindices": {"type": "DT_INT64"}, "validate_indices": {"b": true}, "T": {"type": "DT_INT64"}}}, {"name": "StatefulPartitionedCall/SparseToDense_4", "op": "SparseToDense", "input": ["StatefulPartitionedCall/Where_4", "StatefulPartitionedCall/Cast_14", "StatefulPartitionedCall/GatherV2_4", "StatefulPartitionedCall/zeros_4"], "attr": {"Tindices": {"type": "DT_INT64"}, "T": {"type": "DT_INT64"}, "validate_indices": {"b": true}}}, {"name": "StatefulPartitionedCall/onnx_tf_prefix_Div_32", "op": "Reciprocal", "input": ["StatefulPartitionedCall/onnx_tf_prefix_Sqrt_30"], "attr": {"T": {"type": "DT_FLOAT"}}}, {"name": "StatefulPartitionedCall/assert_equal_13/Assert/AssertGuard/pivot_t/_171", "op": "Const", "input": ["^StatefulPartitionedCall/assert_equal_11/Assert/AssertGuard/branch_executed/_166"], "attr": {"value": {"tensor": {"dtype": "DT_BOOL", "tensorShape": {}}}, "dtype": {"type": "DT_BOOL"}}}, {"name": "StatefulPartitionedCall/assert_equal_13/Assert/AssertGuard/switch_pred/_169", "op": "Switch", "input": ["StatefulPartitionedCall/assert_equal_13/All", "StatefulPartitionedCall/assert_equal_13/All", "^StatefulPartitionedCall/assert_equal_11/Assert/AssertGuard/branch_executed/_166"], "attr": {"T": {"type": "DT_BOOL"}}}, {"name": "StatefulPartitionedCall/assert_equal_11/Assert/AssertGuard/output/_165", "op": "Merge", "input": ["Func/StatefulPartitionedCall/assert_equal_11/Assert/AssertGuard/then/_157/output/_401", "StatefulPartitionedCall/assert_equal_11/Assert/AssertGuard/else/_158/assert_equal_11/Assert/AssertGuard/Identity_1"], "attr": {"N": {"i": "2"}, "T": {"type": "DT_BOOL"}}}, {"name": "StatefulPartitionedCall/add_9", "op": "AddV2", "input": ["StatefulPartitionedCall/onnx_tf_prefix_Concat_58", "StatefulPartitionedCall/SparseToDense_2"], "attr": {"T": {"type": "DT_INT64"}}}, {"name": "StatefulPartitionedCall/add_11", "op": "AddV2", "input": ["StatefulPartitionedCall/onnx_tf_prefix_Concat_81", "StatefulPartitionedCall/SparseToDense_4"], "attr": {"T": {"type": "DT_INT64"}}}, {"name": "StatefulPartitionedCall/onnx_tf_prefix_Mul_33", "op": "Mul", "input": ["StatefulPartitionedCall/onnx_tf_prefix_Reshape_25", "StatefulPartitionedCall/onnx_tf_prefix_Div_32"], "attr": {"T": {"type": "DT_FLOAT"}}}, {"name": "Func/StatefulPartitionedCall/assert_equal_13/Assert/AssertGuard/then/_167/output/_413", "op": "Const", "input": ["^StatefulPartitionedCall/assert_equal_13/Assert/AssertGuard/pivot_t/_171"], "attr": {"dtype": {"type": "DT_BOOL"}, "value": {"tensor": {"dtype": "DT_BOOL", "tensorShape": {}}}}}, {"name": "StatefulPartitionedCall/assert_equal_13/Assert/AssertGuard/pivot_f/_170", "op": "Identity", "input": ["StatefulPartitionedCall/assert_equal_13/Assert/AssertGuard/switch_pred/_169"], "attr": {"T": {"type": "DT_BOOL"}}}, {"name": "StatefulPartitionedCall/Pad", "op": "Pad", "input": ["StatefulPartitionedCall/onnx_tf_prefix_Mul_33", "StatefulPartitionedCall/Const_2"], "attr": {"Tpaddings": {"type": "DT_INT32"}, "T": {"type": "DT_FLOAT"}}}, {"name": "StatefulPartitionedCall/assert_equal_13/Assert/AssertGuard/branch_executed/_176", "op": "Merge", "input": ["StatefulPartitionedCall/assert_equal_13/Assert/AssertGuard/pivot_t/_171", "StatefulPartitionedCall/assert_equal_13/Assert/AssertGuard/pivot_f/_170", "^ConstantFoldingCtrl/StatefulPartitionedCall/assert_equal_13/Assert/AssertGuard/StatefulPartitionedCall/assert_equal_13/All/_172_0"], "attr": {"T": {"type": "DT_BOOL"}, "N": {"i": "2"}}}, {"name": "StatefulPartitionedCall/assert_equal_13/Assert/AssertGuard/else/_168/assert_equal_13/Assert/AssertGuard/Identity_1", "op": "Const", "input": ["^StatefulPartitionedCall/assert_equal_13/Assert/AssertGuard/pivot_f/_170", "^ConstantFoldingCtrl/StatefulPartitionedCall/assert_equal_13/Assert/AssertGuard/StatefulPartitionedCall/assert_equal_13/All/_172_0"], "attr": {"dtype": {"type": "DT_BOOL"}, "value": {"tensor": {"dtype": "DT_BOOL", "tensorShape": {}}}}}, {"name": "StatefulPartitionedCall/transpose_2", "op": "Transpose", "input": ["StatefulPartitionedCall/Pad", "StatefulPartitionedCall/transpose_2/perm"], "attr": {"Tperm": {"type": "DT_INT32"}, "T": {"type": "DT_FLOAT"}}}, {"name": "StatefulPartitionedCall/assert_equal_15/Assert/AssertGuard/pivot_t/_181", "op": "Const", "input": ["^StatefulPartitionedCall/assert_equal_13/Assert/AssertGuard/branch_executed/_176"], "attr": {"value": {"tensor": {"dtype": "DT_BOOL", "tensorShape": {}}}, "dtype": {"type": "DT_BOOL"}}}, {"name": "StatefulPartitionedCall/assert_equal_15/Assert/AssertGuard/switch_pred/_179", "op": "Switch", "input": ["StatefulPartitionedCall/assert_equal_15/All", "StatefulPartitionedCall/assert_equal_15/All", "^StatefulPartitionedCall/assert_equal_13/Assert/AssertGuard/branch_executed/_176"], "attr": {"T": {"type": "DT_BOOL"}}}, {"name": "StatefulPartitionedCall/assert_equal_13/Assert/AssertGuard/output/_175", "op": "Merge", "input": ["Func/StatefulPartitionedCall/assert_equal_13/Assert/AssertGuard/then/_167/output/_413", "StatefulPartitionedCall/assert_equal_13/Assert/AssertGuard/else/_168/assert_equal_13/Assert/AssertGuard/Identity_1"], "attr": {"N": {"i": "2"}, "T": {"type": "DT_BOOL"}}}, {"name": "StatefulPartitionedCall/convolution", "op": "Conv2D", "input": ["StatefulPartitionedCall/transpose_2", "StatefulPartitionedCall/split"], "device": "/device:CPU:0", "attr": {"dilations": {"list": {"i": ["1", "1", "1", "1"]}}, "data_format": {"s": "TkhXQw=="}, "use_cudnn_on_gpu": {"b": true}, "explicit_paddings": {"list": {}}, "strides": {"list": {"i": ["1", "1", "1", "1"]}}, "padding": {"s": "VkFMSUQ="}, "T": {"type": "DT_FLOAT"}}}, {"name": "Func/StatefulPartitionedCall/assert_equal_15/Assert/AssertGuard/then/_177/output/_425", "op": "Const", "input": ["^StatefulPartitionedCall/assert_equal_15/Assert/AssertGuard/pivot_t/_181"], "attr": {"dtype": {"type": "DT_BOOL"}, "value": {"tensor": {"dtype": "DT_BOOL", "tensorShape": {}}}}}, {"name": "StatefulPartitionedCall/assert_equal_15/Assert/AssertGuard/pivot_f/_180", "op": "Identity", "input": ["StatefulPartitionedCall/assert_equal_15/Assert/AssertGuard/switch_pred/_179"], "attr": {"T": {"type": "DT_BOOL"}}}, {"name": "StatefulPartitionedCall/Add_5", "op": "AddV2", "input": ["StatefulPartitionedCall/convolution", "unknown_9"], "attr": {"T": {"type": "DT_FLOAT"}}}, {"name": "StatefulPartitionedCall/assert_equal_15/Assert/AssertGuard/branch_executed/_186", "op": "Merge", "input": ["StatefulPartitionedCall/assert_equal_15/Assert/AssertGuard/pivot_t/_181", "StatefulPartitionedCall/assert_equal_15/Assert/AssertGuard/pivot_f/_180", "^ConstantFoldingCtrl/StatefulPartitionedCall/assert_equal_15/Assert/AssertGuard/StatefulPartitionedCall/assert_equal_15/All/_182_0"], "attr": {"N": {"i": "2"}, "T": {"type": "DT_BOOL"}}}, {"name": "StatefulPartitionedCall/assert_equal_15/Assert/AssertGuard/else/_178/assert_equal_15/Assert/AssertGuard/Identity_1", "op": "Const", "input": ["^StatefulPartitionedCall/assert_equal_15/Assert/AssertGuard/pivot_f/_180", "^ConstantFoldingCtrl/StatefulPartitionedCall/assert_equal_15/Assert/AssertGuard/StatefulPartitionedCall/assert_equal_15/All/_182_0"], "attr": {"value": {"tensor": {"dtype": "DT_BOOL", "tensorShape": {}}}, "dtype": {"type": "DT_BOOL"}}}, {"name": "StatefulPartitionedCall/transpose_3", "op": "Transpose", "input": ["StatefulPartitionedCall/Add_5", "StatefulPartitionedCall/transpose_3/perm"], "attr": {"Tperm": {"type": "DT_INT32"}, "T": {"type": "DT_FLOAT"}}}, {"name": "StatefulPartitionedCall/assert_equal_17/Assert/AssertGuard/pivot_t/_191", "op": "Const", "input": ["^StatefulPartitionedCall/assert_equal_15/Assert/AssertGuard/branch_executed/_186"], "attr": {"value": {"tensor": {"dtype": "DT_BOOL", "tensorShape": {}}}, "dtype": {"type": "DT_BOOL"}}}, {"name": "StatefulPartitionedCall/assert_equal_17/Assert/AssertGuard/switch_pred/_189", "op": "Switch", "input": ["StatefulPartitionedCall/assert_equal_17/All", "StatefulPartitionedCall/assert_equal_17/All", "^StatefulPartitionedCall/assert_equal_15/Assert/AssertGuard/branch_executed/_186"], "attr": {"T": {"type": "DT_BOOL"}}}, {"name": "StatefulPartitionedCall/assert_equal_15/Assert/AssertGuard/output/_185", "op": "Merge", "input": ["Func/StatefulPartitionedCall/assert_equal_15/Assert/AssertGuard/then/_177/output/_425", "StatefulPartitionedCall/assert_equal_15/Assert/AssertGuard/else/_178/assert_equal_15/Assert/AssertGuard/Identity_1"], "attr": {"T": {"type": "DT_BOOL"}, "N": {"i": "2"}}}, {"name": "StatefulPartitionedCall/onnx_tf_prefix_Mul_36", "op": "Mul", "input": ["StatefulPartitionedCall/transpose_3", "StatefulPartitionedCall/onnx_tf_prefix_Constant_35"], "attr": {"T": {"type": "DT_FLOAT"}}}, {"name": "Func/StatefulPartitionedCall/assert_equal_17/Assert/AssertGuard/then/_187/output/_437", "op": "Const", "input": ["^StatefulPartitionedCall/assert_equal_17/Assert/AssertGuard/pivot_t/_191"], "attr": {"dtype": {"type": "DT_BOOL"}, "value": {"tensor": {"dtype": "DT_BOOL", "tensorShape": {}}}}}, {"name": "StatefulPartitionedCall/assert_equal_17/Assert/AssertGuard/pivot_f/_190", "op": "Identity", "input": ["StatefulPartitionedCall/assert_equal_17/Assert/AssertGuard/switch_pred/_189"], "attr": {"T": {"type": "DT_BOOL"}}}, {"name": "StatefulPartitionedCall/onnx_tf_prefix_Concat_119", "op": "Const", "input": ["^StatefulPartitionedCall/assert_equal_11/Assert/AssertGuard/output/_165", "^StatefulPartitionedCall/assert_equal_13/Assert/AssertGuard/output/_175", "^StatefulPartitionedCall/assert_equal_15/Assert/AssertGuard/output/_185"], "attr": {"dtype": {"type": "DT_INT64"}, "value": {"tensor": {"dtype": "DT_INT64", "tensorShape": {"dim": [{"size": "6"}]}}}}}, {"name": "StatefulPartitionedCall/Where_5", "op": "Const", "input": ["^StatefulPartitionedCall/assert_equal_11/Assert/AssertGuard/output/_165", "^StatefulPartitionedCall/assert_equal_13/Assert/AssertGuard/output/_175", "^StatefulPartitionedCall/assert_equal_15/Assert/AssertGuard/output/_185"], "attr": {"dtype": {"type": "DT_INT64"}, "value": {"tensor": {"dtype": "DT_INT64", "tensorShape": {"dim": [{}, {"size": "1"}]}}}}}, {"name": "StatefulPartitionedCall/GatherV2_5", "op": "Const", "input": ["^StatefulPartitionedCall/assert_equal_11/Assert/AssertGuard/output/_165", "^StatefulPartitionedCall/assert_equal_13/Assert/AssertGuard/output/_175", "^StatefulPartitionedCall/assert_equal_15/Assert/AssertGuard/output/_185"], "attr": {"value": {"tensor": {"dtype": "DT_INT64", "tensorShape": {"dim": [{}]}}}, "dtype": {"type": "DT_INT64"}}}, {"name": "StatefulPartitionedCall/ones_1", "op": "Const", "input": ["^StatefulPartitionedCall/assert_equal_11/Assert/AssertGuard/output/_165", "^StatefulPartitionedCall/assert_equal_13/Assert/AssertGuard/output/_175", "^StatefulPartitionedCall/assert_equal_15/Assert/AssertGuard/output/_185"], "attr": {"value": {"tensor": {"dtype": "DT_FLOAT", "tensorShape": {"dim": [{"size": "1"}, {"size": "512"}, {"size": "8"}, {"size": "2"}, {"size": "8"}, {"size": "2"}]}}}, "dtype": {"type": "DT_FLOAT"}}}, {"name": "StatefulPartitionedCall/onnx_tf_prefix_Concat_142", "op": "Const", "input": ["^StatefulPartitionedCall/assert_equal_11/Assert/AssertGuard/output/_165", "^StatefulPartitionedCall/assert_equal_13/Assert/AssertGuard/output/_175", "^StatefulPartitionedCall/assert_equal_15/Assert/AssertGuard/output/_185"], "attr": {"dtype": {"type": "DT_INT64"}, "value": {"tensor": {"dtype": "DT_INT64", "tensorShape": {"dim": [{"size": "4"}]}}}}}, {"name": "StatefulPartitionedCall/Where_7", "op": "Const", "input": ["^StatefulPartitionedCall/assert_equal_11/Assert/AssertGuard/output/_165", "^StatefulPartitionedCall/assert_equal_13/Assert/AssertGuard/output/_175", "^StatefulPartitionedCall/assert_equal_15/Assert/AssertGuard/output/_185"], "attr": {"value": {"tensor": {"dtype": "DT_INT64", "tensorShape": {"dim": [{}, {"size": "1"}]}}}, "dtype": {"type": "DT_INT64"}}}, {"name": "StatefulPartitionedCall/GatherV2_7", "op": "Const", "input": ["^StatefulPartitionedCall/assert_equal_11/Assert/AssertGuard/output/_165", "^StatefulPartitionedCall/assert_equal_13/Assert/AssertGuard/output/_175", "^StatefulPartitionedCall/assert_equal_15/Assert/AssertGuard/output/_185"], "attr": {"value": {"tensor": {"dtype": "DT_INT64", "tensorShape": {"dim": [{}]}}}, "dtype": {"type": "DT_INT64"}}}, {"name": "StatefulPartitionedCall/onnx_tf_prefix_LeakyRelu_37", "op": "LeakyRelu", "input": ["StatefulPartitionedCall/onnx_tf_prefix_Mul_36"], "attr": {"alpha": {"f": 0.2}, "T": {"type": "DT_FLOAT"}}}, {"name": "StatefulPartitionedCall/assert_equal_17/Assert/AssertGuard/branch_executed/_196", "op": "Merge", "input": ["StatefulPartitionedCall/assert_equal_17/Assert/AssertGuard/pivot_t/_191", "StatefulPartitionedCall/assert_equal_17/Assert/AssertGuard/pivot_f/_190", "^ConstantFoldingCtrl/StatefulPartitionedCall/assert_equal_17/Assert/AssertGuard/StatefulPartitionedCall/assert_equal_17/All/_192_0"], "attr": {"N": {"i": "2"}, "T": {"type": "DT_BOOL"}}}, {"name": "StatefulPartitionedCall/assert_equal_17/Assert/AssertGuard/else/_188/assert_equal_17/Assert/AssertGuard/Identity_1", "op": "Const", "input": ["^StatefulPartitionedCall/assert_equal_17/Assert/AssertGuard/pivot_f/_190", "^ConstantFoldingCtrl/StatefulPartitionedCall/assert_equal_17/Assert/AssertGuard/StatefulPartitionedCall/assert_equal_17/All/_192_0"], "attr": {"dtype": {"type": "DT_BOOL"}, "value": {"tensor": {"dtype": "DT_BOOL", "tensorShape": {}}}}}, {"name": "StatefulPartitionedCall/SparseToDense_5", "op": "SparseToDense", "input": ["StatefulPartitionedCall/Where_5", "StatefulPartitionedCall/Cast_21", "StatefulPartitionedCall/GatherV2_5", "StatefulPartitionedCall/zeros_5"], "attr": {"Tindices": {"type": "DT_INT64"}, "T": {"type": "DT_INT64"}, "validate_indices": {"b": true}}}, {"name": "StatefulPartitionedCall/SparseToDense_7", "op": "SparseToDense", "input": ["StatefulPartitionedCall/Where_7", "StatefulPartitionedCall/Cast_23", "StatefulPartitionedCall/GatherV2_7", "StatefulPartitionedCall/zeros_7"], "attr": {"Tindices": {"type": "DT_INT64"}, "T": {"type": "DT_INT64"}, "validate_indices": {"b": true}}}, {"name": "StatefulPartitionedCall/onnx_tf_prefix_Pow_38", "op": "Square", "input": ["StatefulPartitionedCall/onnx_tf_prefix_LeakyRelu_37"], "attr": {"T": {"type": "DT_FLOAT"}}}, {"name": "StatefulPartitionedCall/assert_equal_19/Assert/AssertGuard/pivot_t/_201", "op": "Const", "input": ["^StatefulPartitionedCall/assert_equal_17/Assert/AssertGuard/branch_executed/_196"], "attr": {"dtype": {"type": "DT_BOOL"}, "value": {"tensor": {"dtype": "DT_BOOL", "tensorShape": {}}}}}, {"name": "StatefulPartitionedCall/assert_equal_19/Assert/AssertGuard/switch_pred/_199", "op": "Switch", "input": ["StatefulPartitionedCall/assert_equal_19/All", "StatefulPartitionedCall/assert_equal_19/All", "^StatefulPartitionedCall/assert_equal_17/Assert/AssertGuard/branch_executed/_196"], "attr": {"T": {"type": "DT_BOOL"}}}, {"name": "StatefulPartitionedCall/assert_equal_17/Assert/AssertGuard/output/_195", "op": "Merge", "input": ["Func/StatefulPartitionedCall/assert_equal_17/Assert/AssertGuard/then/_187/output/_437", "StatefulPartitionedCall/assert_equal_17/Assert/AssertGuard/else/_188/assert_equal_17/Assert/AssertGuard/Identity_1"], "attr": {"T": {"type": "DT_BOOL"}, "N": {"i": "2"}}}, {"name": "StatefulPartitionedCall/add_17", "op": "AddV2", "input": ["StatefulPartitionedCall/onnx_tf_prefix_Concat_119", "StatefulPartitionedCall/SparseToDense_5"], "attr": {"T": {"type": "DT_INT64"}}}, {"name": "StatefulPartitionedCall/add_19", "op": "AddV2", "input": ["StatefulPartitionedCall/onnx_tf_prefix_Concat_142", "StatefulPartitionedCall/SparseToDense_7"], "attr": {"T": {"type": "DT_INT64"}}}, {"name": "StatefulPartitionedCall/onnx_tf_prefix_ReduceMean_39", "op": "Mean", "input": ["StatefulPartitionedCall/onnx_tf_prefix_Pow_38", "StatefulPartitionedCall/onnx_tf_prefix_ReduceMean_39/reduction_indices"], "attr": {"keep_dims": {"b": true}, "T": {"type": "DT_FLOAT"}, "Tidx": {"type": "DT_INT32"}}}, {"name": "Func/StatefulPartitionedCall/assert_equal_19/Assert/AssertGuard/then/_197/output/_449", "op": "Const", "input": ["^StatefulPartitionedCall/assert_equal_19/Assert/AssertGuard/pivot_t/_201"], "attr": {"dtype": {"type": "DT_BOOL"}, "value": {"tensor": {"dtype": "DT_BOOL", "tensorShape": {}}}}}, {"name": "StatefulPartitionedCall/assert_equal_19/Assert/AssertGuard/pivot_f/_200", "op": "Identity", "input": ["StatefulPartitionedCall/assert_equal_19/Assert/AssertGuard/switch_pred/_199"], "attr": {"T": {"type": "DT_BOOL"}}}, {"name": "StatefulPartitionedCall/onnx_tf_prefix_Add_41", "op": "AddV2", "input": ["StatefulPartitionedCall/onnx_tf_prefix_ReduceMean_39", "StatefulPartitionedCall/onnx_tf_prefix_Constant_40"], "attr": {"T": {"type": "DT_FLOAT"}}}, {"name": "StatefulPartitionedCall/assert_equal_19/Assert/AssertGuard/branch_executed/_206", "op": "Merge", "input": ["StatefulPartitionedCall/assert_equal_19/Assert/AssertGuard/pivot_t/_201", "StatefulPartitionedCall/assert_equal_19/Assert/AssertGuard/pivot_f/_200", "^ConstantFoldingCtrl/StatefulPartitionedCall/assert_equal_19/Assert/AssertGuard/StatefulPartitionedCall/assert_equal_19/All/_202_0"], "attr": {"T": {"type": "DT_BOOL"}, "N": {"i": "2"}}}, {"name": "StatefulPartitionedCall/assert_equal_19/Assert/AssertGuard/else/_198/assert_equal_19/Assert/AssertGuard/Identity_1", "op": "Const", "input": ["^StatefulPartitionedCall/assert_equal_19/Assert/AssertGuard/pivot_f/_200", "^ConstantFoldingCtrl/StatefulPartitionedCall/assert_equal_19/Assert/AssertGuard/StatefulPartitionedCall/assert_equal_19/All/_202_0"], "attr": {"value": {"tensor": {"dtype": "DT_BOOL", "tensorShape": {}}}, "dtype": {"type": "DT_BOOL"}}}, {"name": "StatefulPartitionedCall/onnx_tf_prefix_Sqrt_42", "op": "Sqrt", "input": ["StatefulPartitionedCall/onnx_tf_prefix_Add_41"], "attr": {"T": {"type": "DT_FLOAT"}}}, {"name": "StatefulPartitionedCall/assert_equal_21/Assert/AssertGuard/pivot_t/_211", "op": "Const", "input": ["^StatefulPartitionedCall/assert_equal_19/Assert/AssertGuard/branch_executed/_206"], "attr": {"value": {"tensor": {"dtype": "DT_BOOL", "tensorShape": {}}}, "dtype": {"type": "DT_BOOL"}}}, {"name": "StatefulPartitionedCall/assert_equal_21/Assert/AssertGuard/switch_pred/_209", "op": "Switch", "input": ["StatefulPartitionedCall/assert_equal_21/All", "StatefulPartitionedCall/assert_equal_21/All", "^StatefulPartitionedCall/assert_equal_19/Assert/AssertGuard/branch_executed/_206"], "attr": {"T": {"type": "DT_BOOL"}}}, {"name": "StatefulPartitionedCall/assert_equal_19/Assert/AssertGuard/output/_205", "op": "Merge", "input": ["Func/StatefulPartitionedCall/assert_equal_19/Assert/AssertGuard/then/_197/output/_449", "StatefulPartitionedCall/assert_equal_19/Assert/AssertGuard/else/_198/assert_equal_19/Assert/AssertGuard/Identity_1"], "attr": {"T": {"type": "DT_BOOL"}, "N": {"i": "2"}}}, {"name": "StatefulPartitionedCall/onnx_tf_prefix_Div_44", "op": "Reciprocal", "input": ["StatefulPartitionedCall/onnx_tf_prefix_Sqrt_42"], "attr": {"T": {"type": "DT_FLOAT"}}}, {"name": "Func/StatefulPartitionedCall/assert_equal_21/Assert/AssertGuard/then/_207/output/_461", "op": "Const", "input": ["^StatefulPartitionedCall/assert_equal_21/Assert/AssertGuard/pivot_t/_211"], "attr": {"value": {"tensor": {"dtype": "DT_BOOL", "tensorShape": {}}}, "dtype": {"type": "DT_BOOL"}}}, {"name": "StatefulPartitionedCall/assert_equal_21/Assert/AssertGuard/pivot_f/_210", "op": "Identity", "input": ["StatefulPartitionedCall/assert_equal_21/Assert/AssertGuard/switch_pred/_209"], "attr": {"T": {"type": "DT_BOOL"}}}, {"name": "StatefulPartitionedCall/onnx_tf_prefix_Mul_45", "op": "Mul", "input": ["StatefulPartitionedCall/onnx_tf_prefix_LeakyRelu_37", "StatefulPartitionedCall/onnx_tf_prefix_Div_44"], "attr": {"T": {"type": "DT_FLOAT"}}}, {"name": "StatefulPartitionedCall/assert_equal_21/Assert/AssertGuard/branch_executed/_216", "op": "Merge", "input": ["StatefulPartitionedCall/assert_equal_21/Assert/AssertGuard/pivot_t/_211", "StatefulPartitionedCall/assert_equal_21/Assert/AssertGuard/pivot_f/_210", "^ConstantFoldingCtrl/StatefulPartitionedCall/assert_equal_21/Assert/AssertGuard/StatefulPartitionedCall/assert_equal_21/All/_212_0"], "attr": {"N": {"i": "2"}, "T": {"type": "DT_BOOL"}}}, {"name": "StatefulPartitionedCall/assert_equal_21/Assert/AssertGuard/else/_208/assert_equal_21/Assert/AssertGuard/Identity_1", "op": "Const", "input": ["^StatefulPartitionedCall/assert_equal_21/Assert/AssertGuard/pivot_f/_210", "^ConstantFoldingCtrl/StatefulPartitionedCall/assert_equal_21/Assert/AssertGuard/StatefulPartitionedCall/assert_equal_21/All/_212_0"], "attr": {"value": {"tensor": {"dtype": "DT_BOOL", "tensorShape": {}}}, "dtype": {"type": "DT_BOOL"}}}, {"name": "StatefulPartitionedCall/onnx_tf_prefix_Reshape_59", "op": "Reshape", "input": ["StatefulPartitionedCall/onnx_tf_prefix_Mul_45", "StatefulPartitionedCall/add_9"], "attr": {"T": {"type": "DT_FLOAT"}, "Tshape": {"type": "DT_INT64"}}}, {"name": "StatefulPartitionedCall/assert_equal_23/Assert/AssertGuard/pivot_t/_221", "op": "Const", "input": ["^StatefulPartitionedCall/assert_equal_21/Assert/AssertGuard/branch_executed/_216"], "attr": {"value": {"tensor": {"dtype": "DT_BOOL", "tensorShape": {}}}, "dtype": {"type": "DT_BOOL"}}}, {"name": "StatefulPartitionedCall/assert_equal_23/Assert/AssertGuard/switch_pred/_219", "op": "Switch", "input": ["StatefulPartitionedCall/assert_equal_23/All", "StatefulPartitionedCall/assert_equal_23/All", "^StatefulPartitionedCall/assert_equal_21/Assert/AssertGuard/branch_executed/_216"], "attr": {"T": {"type": "DT_BOOL"}}}, {"name": "StatefulPartitionedCall/assert_equal_21/Assert/AssertGuard/output/_215", "op": "Merge", "input": ["Func/StatefulPartitionedCall/assert_equal_21/Assert/AssertGuard/then/_207/output/_461", "StatefulPartitionedCall/assert_equal_21/Assert/AssertGuard/else/_208/assert_equal_21/Assert/AssertGuard/Identity_1"], "attr": {"T": {"type": "DT_BOOL"}, "N": {"i": "2"}}}, {"name": "StatefulPartitionedCall/mul_2", "op": "Mul", "input": ["StatefulPartitionedCall/onnx_tf_prefix_Reshape_59", "StatefulPartitionedCall/ones"], "attr": {"T": {"type": "DT_FLOAT"}}}, {"name": "Func/StatefulPartitionedCall/assert_equal_23/Assert/AssertGuard/then/_217/output/_473", "op": "Const", "input": ["^StatefulPartitionedCall/assert_equal_23/Assert/AssertGuard/pivot_t/_221"], "attr": {"value": {"tensor": {"dtype": "DT_BOOL", "tensorShape": {}}}, "dtype": {"type": "DT_BOOL"}}}, {"name": "StatefulPartitionedCall/assert_equal_23/Assert/AssertGuard/pivot_f/_220", "op": "Identity", "input": ["StatefulPartitionedCall/assert_equal_23/Assert/AssertGuard/switch_pred/_219"], "attr": {"T": {"type": "DT_BOOL"}}}, {"name": "StatefulPartitionedCall/onnx_tf_prefix_Concat_180", "op": "Const", "input": ["^StatefulPartitionedCall/assert_equal_17/Assert/AssertGuard/output/_195", "^StatefulPartitionedCall/assert_equal_19/Assert/AssertGuard/output/_205", "^StatefulPartitionedCall/assert_equal_21/Assert/AssertGuard/output/_215"], "attr": {"value": {"tensor": {"dtype": "DT_INT64", "tensorShape": {"dim": [{"size": "6"}]}}}, "dtype": {"type": "DT_INT64"}}}, {"name": "StatefulPartitionedCall/Where_8", "op": "Const", "input": ["^StatefulPartitionedCall/assert_equal_17/Assert/AssertGuard/output/_195", "^StatefulPartitionedCall/assert_equal_19/Assert/AssertGuard/output/_205", "^StatefulPartitionedCall/assert_equal_21/Assert/AssertGuard/output/_215"], "attr": {"value": {"tensor": {"dtype": "DT_INT64", "tensorShape": {"dim": [{}, {"size": "1"}]}}}, "dtype": {"type": "DT_INT64"}}}, {"name": "StatefulPartitionedCall/GatherV2_8", "op": "Const", "input": ["^StatefulPartitionedCall/assert_equal_17/Assert/AssertGuard/output/_195", "^StatefulPartitionedCall/assert_equal_19/Assert/AssertGuard/output/_205", "^StatefulPartitionedCall/assert_equal_21/Assert/AssertGuard/output/_215"], "attr": {"value": {"tensor": {"dtype": "DT_INT64", "tensorShape": {"dim": [{}]}}}, "dtype": {"type": "DT_INT64"}}}, {"name": "StatefulPartitionedCall/ones_2", "op": "Const", "input": ["^StatefulPartitionedCall/assert_equal_17/Assert/AssertGuard/output/_195", "^StatefulPartitionedCall/assert_equal_19/Assert/AssertGuard/output/_205", "^StatefulPartitionedCall/assert_equal_21/Assert/AssertGuard/output/_215"], "attr": {"value": {"tensor": {"dtype": "DT_FLOAT", "tensorShape": {"dim": [{"size": "1"}, {"size": "512"}, {"size": "16"}, {"size": "2"}, {"size": "16"}, {"size": "2"}]}}}, "dtype": {"type": "DT_FLOAT"}}}, {"name": "StatefulPartitionedCall/onnx_tf_prefix_Concat_203", "op": "Const", "input": ["^StatefulPartitionedCall/assert_equal_17/Assert/AssertGuard/output/_195", "^StatefulPartitionedCall/assert_equal_19/Assert/AssertGuard/output/_205", "^StatefulPartitionedCall/assert_equal_21/Assert/AssertGuard/output/_215"], "attr": {"dtype": {"type": "DT_INT64"}, "value": {"tensor": {"dtype": "DT_INT64", "tensorShape": {"dim": [{"size": "4"}]}}}}}, {"name": "StatefulPartitionedCall/Where_10", "op": "Const", "input": ["^StatefulPartitionedCall/assert_equal_17/Assert/AssertGuard/output/_195", "^StatefulPartitionedCall/assert_equal_19/Assert/AssertGuard/output/_205", "^StatefulPartitionedCall/assert_equal_21/Assert/AssertGuard/output/_215"], "attr": {"dtype": {"type": "DT_INT64"}, "value": {"tensor": {"dtype": "DT_INT64", "tensorShape": {"dim": [{}, {"size": "1"}]}}}}}, {"name": "StatefulPartitionedCall/GatherV2_10", "op": "Const", "input": ["^StatefulPartitionedCall/assert_equal_17/Assert/AssertGuard/output/_195", "^StatefulPartitionedCall/assert_equal_19/Assert/AssertGuard/output/_205", "^StatefulPartitionedCall/assert_equal_21/Assert/AssertGuard/output/_215"], "attr": {"dtype": {"type": "DT_INT64"}, "value": {"tensor": {"dtype": "DT_INT64", "tensorShape": {"dim": [{}]}}}}}, {"name": "StatefulPartitionedCall/onnx_tf_prefix_Reshape_82", "op": "Reshape", "input": ["StatefulPartitionedCall/mul_2", "StatefulPartitionedCall/add_11"], "attr": {"T": {"type": "DT_FLOAT"}, "Tshape": {"type": "DT_INT64"}}}, {"name": "StatefulPartitionedCall/assert_equal_23/Assert/AssertGuard/branch_executed/_226", "op": "Merge", "input": ["StatefulPartitionedCall/assert_equal_23/Assert/AssertGuard/pivot_t/_221", "StatefulPartitionedCall/assert_equal_23/Assert/AssertGuard/pivot_f/_220", "^ConstantFoldingCtrl/StatefulPartitionedCall/assert_equal_23/Assert/AssertGuard/StatefulPartitionedCall/assert_equal_23/All/_222_0"], "attr": {"N": {"i": "2"}, "T": {"type": "DT_BOOL"}}}, {"name": "StatefulPartitionedCall/assert_equal_23/Assert/AssertGuard/else/_218/assert_equal_23/Assert/AssertGuard/Identity_1", "op": "Const", "input": ["^StatefulPartitionedCall/assert_equal_23/Assert/AssertGuard/pivot_f/_220", "^ConstantFoldingCtrl/StatefulPartitionedCall/assert_equal_23/Assert/AssertGuard/StatefulPartitionedCall/assert_equal_23/All/_222_0"], "attr": {"value": {"tensor": {"dtype": "DT_BOOL", "tensorShape": {}}}, "dtype": {"type": "DT_BOOL"}}}, {"name": "StatefulPartitionedCall/SparseToDense_8", "op": "SparseToDense", "input": ["StatefulPartitionedCall/Where_8", "StatefulPartitionedCall/Cast_30", "StatefulPartitionedCall/GatherV2_8", "StatefulPartitionedCall/zeros_8"], "attr": {"Tindices": {"type": "DT_INT64"}, "T": {"type": "DT_INT64"}, "validate_indices": {"b": true}}}, {"name": "StatefulPartitionedCall/SparseToDense_10", "op": "SparseToDense", "input": ["StatefulPartitionedCall/Where_10", "StatefulPartitionedCall/Cast_32", "StatefulPartitionedCall/GatherV2_10", "StatefulPartitionedCall/zeros_10"], "attr": {"T": {"type": "DT_INT64"}, "validate_indices": {"b": true}, "Tindices": {"type": "DT_INT64"}}}, {"name": "StatefulPartitionedCall/Pad_1", "op": "Pad", "input": ["StatefulPartitionedCall/onnx_tf_prefix_Reshape_82", "StatefulPartitionedCall/Const_6"], "attr": {"Tpaddings": {"type": "DT_INT32"}, "T": {"type": "DT_FLOAT"}}}, {"name": "StatefulPartitionedCall/assert_equal_25/Assert/AssertGuard/pivot_t/_231", "op": "Const", "input": ["^StatefulPartitionedCall/assert_equal_23/Assert/AssertGuard/branch_executed/_226"], "attr": {"dtype": {"type": "DT_BOOL"}, "value": {"tensor": {"dtype": "DT_BOOL", "tensorShape": {}}}}}, {"name": "StatefulPartitionedCall/assert_equal_25/Assert/AssertGuard/switch_pred/_229", "op": "Switch", "input": ["StatefulPartitionedCall/assert_equal_25/All", "StatefulPartitionedCall/assert_equal_25/All", "^StatefulPartitionedCall/assert_equal_23/Assert/AssertGuard/branch_executed/_226"], "attr": {"T": {"type": "DT_BOOL"}}}, {"name": "StatefulPartitionedCall/assert_equal_23/Assert/AssertGuard/output/_225", "op": "Merge", "input": ["Func/StatefulPartitionedCall/assert_equal_23/Assert/AssertGuard/then/_217/output/_473", "StatefulPartitionedCall/assert_equal_23/Assert/AssertGuard/else/_218/assert_equal_23/Assert/AssertGuard/Identity_1"], "attr": {"T": {"type": "DT_BOOL"}, "N": {"i": "2"}}}, {"name": "StatefulPartitionedCall/add_25", "op": "AddV2", "input": ["StatefulPartitionedCall/onnx_tf_prefix_Concat_180", "StatefulPartitionedCall/SparseToDense_8"], "attr": {"T": {"type": "DT_INT64"}}}, {"name": "StatefulPartitionedCall/add_27", "op": "AddV2", "input": ["StatefulPartitionedCall/onnx_tf_prefix_Concat_203", "StatefulPartitionedCall/SparseToDense_10"], "attr": {"T": {"type": "DT_INT64"}}}, {"name": "StatefulPartitionedCall/transpose_5", "op": "Transpose", "input": ["StatefulPartitionedCall/Pad_1", "StatefulPartitionedCall/transpose_5/perm"], "attr": {"T": {"type": "DT_FLOAT"}, "Tperm": {"type": "DT_INT32"}}}, {"name": "Func/StatefulPartitionedCall/assert_equal_25/Assert/AssertGuard/then/_227/output/_485", "op": "Const", "input": ["^StatefulPartitionedCall/assert_equal_25/Assert/AssertGuard/pivot_t/_231"], "attr": {"value": {"tensor": {"dtype": "DT_BOOL", "tensorShape": {}}}, "dtype": {"type": "DT_BOOL"}}}, {"name": "StatefulPartitionedCall/assert_equal_25/Assert/AssertGuard/pivot_f/_230", "op": "Identity", "input": ["StatefulPartitionedCall/assert_equal_25/Assert/AssertGuard/switch_pred/_229"], "attr": {"T": {"type": "DT_BOOL"}}}, {"name": "StatefulPartitionedCall/convolution_1", "op": "Conv2D", "input": ["StatefulPartitionedCall/transpose_5", "StatefulPartitionedCall/split_1"], "device": "/device:CPU:0", "attr": {"use_cudnn_on_gpu": {"b": true}, "padding": {"s": "VkFMSUQ="}, "T": {"type": "DT_FLOAT"}, "explicit_paddings": {"list": {}}, "strides": {"list": {"i": ["1", "1", "1", "1"]}}, "data_format": {"s": "TkhXQw=="}, "dilations": {"list": {"i": ["1", "1", "1", "1"]}}}}, {"name": "StatefulPartitionedCall/assert_equal_25/Assert/AssertGuard/branch_executed/_236", "op": "Merge", "input": ["StatefulPartitionedCall/assert_equal_25/Assert/AssertGuard/pivot_t/_231", "StatefulPartitionedCall/assert_equal_25/Assert/AssertGuard/pivot_f/_230", "^ConstantFoldingCtrl/StatefulPartitionedCall/assert_equal_25/Assert/AssertGuard/StatefulPartitionedCall/assert_equal_25/All/_232_0"], "attr": {"T": {"type": "DT_BOOL"}, "N": {"i": "2"}}}, {"name": "StatefulPartitionedCall/assert_equal_25/Assert/AssertGuard/else/_228/assert_equal_25/Assert/AssertGuard/Identity_1", "op": "Const", "input": ["^StatefulPartitionedCall/assert_equal_25/Assert/AssertGuard/pivot_f/_230", "^ConstantFoldingCtrl/StatefulPartitionedCall/assert_equal_25/Assert/AssertGuard/StatefulPartitionedCall/assert_equal_25/All/_232_0"], "attr": {"dtype": {"type": "DT_BOOL"}, "value": {"tensor": {"dtype": "DT_BOOL", "tensorShape": {}}}}}, {"name": "StatefulPartitionedCall/Add_12", "op": "AddV2", "input": ["StatefulPartitionedCall/convolution_1", "unknown_19"], "attr": {"T": {"type": "DT_FLOAT"}}}, {"name": "StatefulPartitionedCall/assert_equal_27/Assert/AssertGuard/pivot_t/_241", "op": "Const", "input": ["^StatefulPartitionedCall/assert_equal_25/Assert/AssertGuard/branch_executed/_236"], "attr": {"dtype": {"type": "DT_BOOL"}, "value": {"tensor": {"dtype": "DT_BOOL", "tensorShape": {}}}}}, {"name": "StatefulPartitionedCall/assert_equal_27/Assert/AssertGuard/switch_pred/_239", "op": "Switch", "input": ["StatefulPartitionedCall/assert_equal_27/All", "StatefulPartitionedCall/assert_equal_27/All", "^StatefulPartitionedCall/assert_equal_25/Assert/AssertGuard/branch_executed/_236"], "attr": {"T": {"type": "DT_BOOL"}}}, {"name": "StatefulPartitionedCall/assert_equal_25/Assert/AssertGuard/output/_235", "op": "Merge", "input": ["Func/StatefulPartitionedCall/assert_equal_25/Assert/AssertGuard/then/_227/output/_485", "StatefulPartitionedCall/assert_equal_25/Assert/AssertGuard/else/_228/assert_equal_25/Assert/AssertGuard/Identity_1"], "attr": {"T": {"type": "DT_BOOL"}, "N": {"i": "2"}}}, {"name": "StatefulPartitionedCall/transpose_6", "op": "Transpose", "input": ["StatefulPartitionedCall/Add_12", "StatefulPartitionedCall/transpose_6/perm"], "attr": {"T": {"type": "DT_FLOAT"}, "Tperm": {"type": "DT_INT32"}}}, {"name": "Func/StatefulPartitionedCall/assert_equal_27/Assert/AssertGuard/then/_237/output/_497", "op": "Const", "input": ["^StatefulPartitionedCall/assert_equal_27/Assert/AssertGuard/pivot_t/_241"], "attr": {"dtype": {"type": "DT_BOOL"}, "value": {"tensor": {"dtype": "DT_BOOL", "tensorShape": {}}}}}, {"name": "StatefulPartitionedCall/assert_equal_27/Assert/AssertGuard/pivot_f/_240", "op": "Identity", "input": ["StatefulPartitionedCall/assert_equal_27/Assert/AssertGuard/switch_pred/_239"], "attr": {"T": {"type": "DT_BOOL"}}}, {"name": "StatefulPartitionedCall/onnx_tf_prefix_Mul_85", "op": "Mul", "input": ["StatefulPartitionedCall/transpose_6", "StatefulPartitionedCall/onnx_tf_prefix_Constant_84"], "attr": {"T": {"type": "DT_FLOAT"}}}, {"name": "StatefulPartitionedCall/assert_equal_27/Assert/AssertGuard/branch_executed/_246", "op": "Merge", "input": ["StatefulPartitionedCall/assert_equal_27/Assert/AssertGuard/pivot_t/_241", "StatefulPartitionedCall/assert_equal_27/Assert/AssertGuard/pivot_f/_240", "^ConstantFoldingCtrl/StatefulPartitionedCall/assert_equal_27/Assert/AssertGuard/StatefulPartitionedCall/assert_equal_27/All/_242_0"], "attr": {"T": {"type": "DT_BOOL"}, "N": {"i": "2"}}}, {"name": "StatefulPartitionedCall/assert_equal_27/Assert/AssertGuard/else/_238/assert_equal_27/Assert/AssertGuard/Identity_1", "op": "Const", "input": ["^StatefulPartitionedCall/assert_equal_27/Assert/AssertGuard/pivot_f/_240", "^ConstantFoldingCtrl/StatefulPartitionedCall/assert_equal_27/Assert/AssertGuard/StatefulPartitionedCall/assert_equal_27/All/_242_0"], "attr": {"dtype": {"type": "DT_BOOL"}, "value": {"tensor": {"dtype": "DT_BOOL", "tensorShape": {}}}}}, {"name": "StatefulPartitionedCall/onnx_tf_prefix_LeakyRelu_86", "op": "LeakyRelu", "input": ["StatefulPartitionedCall/onnx_tf_prefix_Mul_85"], "attr": {"T": {"type": "DT_FLOAT"}, "alpha": {"f": 0.2}}}, {"name": "StatefulPartitionedCall/assert_equal_29/Assert/AssertGuard/pivot_t/_251", "op": "Const", "input": ["^StatefulPartitionedCall/assert_equal_27/Assert/AssertGuard/branch_executed/_246"], "attr": {"dtype": {"type": "DT_BOOL"}, "value": {"tensor": {"dtype": "DT_BOOL", "tensorShape": {}}}}}, {"name": "StatefulPartitionedCall/assert_equal_29/Assert/AssertGuard/switch_pred/_249", "op": "Switch", "input": ["StatefulPartitionedCall/assert_equal_29/All", "StatefulPartitionedCall/assert_equal_29/All", "^StatefulPartitionedCall/assert_equal_27/Assert/AssertGuard/branch_executed/_246"], "attr": {"T": {"type": "DT_BOOL"}}}, {"name": "StatefulPartitionedCall/assert_equal_27/Assert/AssertGuard/output/_245", "op": "Merge", "input": ["Func/StatefulPartitionedCall/assert_equal_27/Assert/AssertGuard/then/_237/output/_497", "StatefulPartitionedCall/assert_equal_27/Assert/AssertGuard/else/_238/assert_equal_27/Assert/AssertGuard/Identity_1"], "attr": {"N": {"i": "2"}, "T": {"type": "DT_BOOL"}}}, {"name": "StatefulPartitionedCall/onnx_tf_prefix_Pow_87", "op": "Square", "input": ["StatefulPartitionedCall/onnx_tf_prefix_LeakyRelu_86"], "attr": {"T": {"type": "DT_FLOAT"}}}, {"name": "Func/StatefulPartitionedCall/assert_equal_29/Assert/AssertGuard/then/_247/output/_509", "op": "Const", "input": ["^StatefulPartitionedCall/assert_equal_29/Assert/AssertGuard/pivot_t/_251"], "attr": {"dtype": {"type": "DT_BOOL"}, "value": {"tensor": {"dtype": "DT_BOOL", "tensorShape": {}}}}}, {"name": "StatefulPartitionedCall/assert_equal_29/Assert/AssertGuard/pivot_f/_250", "op": "Identity", "input": ["StatefulPartitionedCall/assert_equal_29/Assert/AssertGuard/switch_pred/_249"], "attr": {"T": {"type": "DT_BOOL"}}}, {"name": "StatefulPartitionedCall/onnx_tf_prefix_Concat_241", "op": "Const", "input": ["^StatefulPartitionedCall/assert_equal_23/Assert/AssertGuard/output/_225", "^StatefulPartitionedCall/assert_equal_25/Assert/AssertGuard/output/_235", "^StatefulPartitionedCall/assert_equal_27/Assert/AssertGuard/output/_245"], "attr": {"value": {"tensor": {"dtype": "DT_INT64", "tensorShape": {"dim": [{"size": "6"}]}}}, "dtype": {"type": "DT_INT64"}}}, {"name": "StatefulPartitionedCall/Where_11", "op": "Const", "input": ["^StatefulPartitionedCall/assert_equal_23/Assert/AssertGuard/output/_225", "^StatefulPartitionedCall/assert_equal_25/Assert/AssertGuard/output/_235", "^StatefulPartitionedCall/assert_equal_27/Assert/AssertGuard/output/_245"], "attr": {"dtype": {"type": "DT_INT64"}, "value": {"tensor": {"dtype": "DT_INT64", "tensorShape": {"dim": [{}, {"size": "1"}]}}}}}, {"name": "StatefulPartitionedCall/GatherV2_11", "op": "Const", "input": ["^StatefulPartitionedCall/assert_equal_23/Assert/AssertGuard/output/_225", "^StatefulPartitionedCall/assert_equal_25/Assert/AssertGuard/output/_235", "^StatefulPartitionedCall/assert_equal_27/Assert/AssertGuard/output/_245"], "attr": {"value": {"tensor": {"dtype": "DT_INT64", "tensorShape": {"dim": [{}]}}}, "dtype": {"type": "DT_INT64"}}}, {"name": "StatefulPartitionedCall/ones_3", "op": "Const", "input": ["^StatefulPartitionedCall/assert_equal_23/Assert/AssertGuard/output/_225", "^StatefulPartitionedCall/assert_equal_25/Assert/AssertGuard/output/_235", "^StatefulPartitionedCall/assert_equal_27/Assert/AssertGuard/output/_245"], "attr": {"dtype": {"type": "DT_FLOAT"}, "value": {"tensor": {"dtype": "DT_FLOAT", "tensorShape": {"dim": [{"size": "1"}, {"size": "512"}, {"size": "32"}, {"size": "2"}, {"size": "32"}, {"size": "2"}]}}}}}, {"name": "StatefulPartitionedCall/onnx_tf_prefix_Concat_264", "op": "Const", "input": ["^StatefulPartitionedCall/assert_equal_23/Assert/AssertGuard/output/_225", "^StatefulPartitionedCall/assert_equal_25/Assert/AssertGuard/output/_235", "^StatefulPartitionedCall/assert_equal_27/Assert/AssertGuard/output/_245"], "attr": {"dtype": {"type": "DT_INT64"}, "value": {"tensor": {"dtype": "DT_INT64", "tensorShape": {"dim": [{"size": "4"}]}}}}}, {"name": "StatefulPartitionedCall/Where_13", "op": "Const", "input": ["^StatefulPartitionedCall/assert_equal_23/Assert/AssertGuard/output/_225", "^StatefulPartitionedCall/assert_equal_25/Assert/AssertGuard/output/_235", "^StatefulPartitionedCall/assert_equal_27/Assert/AssertGuard/output/_245"], "attr": {"value": {"tensor": {"dtype": "DT_INT64", "tensorShape": {"dim": [{}, {"size": "1"}]}}}, "dtype": {"type": "DT_INT64"}}}, {"name": "StatefulPartitionedCall/GatherV2_13", "op": "Const", "input": ["^StatefulPartitionedCall/assert_equal_23/Assert/AssertGuard/output/_225", "^StatefulPartitionedCall/assert_equal_25/Assert/AssertGuard/output/_235", "^StatefulPartitionedCall/assert_equal_27/Assert/AssertGuard/output/_245"], "attr": {"value": {"tensor": {"dtype": "DT_INT64", "tensorShape": {"dim": [{}]}}}, "dtype": {"type": "DT_INT64"}}}, {"name": "StatefulPartitionedCall/onnx_tf_prefix_ReduceMean_88", "op": "Mean", "input": ["StatefulPartitionedCall/onnx_tf_prefix_Pow_87", "StatefulPartitionedCall/onnx_tf_prefix_ReduceMean_88/reduction_indices"], "attr": {"T": {"type": "DT_FLOAT"}, "Tidx": {"type": "DT_INT32"}, "keep_dims": {"b": true}}}, {"name": "StatefulPartitionedCall/assert_equal_29/Assert/AssertGuard/branch_executed/_256", "op": "Merge", "input": ["StatefulPartitionedCall/assert_equal_29/Assert/AssertGuard/pivot_t/_251", "StatefulPartitionedCall/assert_equal_29/Assert/AssertGuard/pivot_f/_250", "^ConstantFoldingCtrl/StatefulPartitionedCall/assert_equal_29/Assert/AssertGuard/StatefulPartitionedCall/assert_equal_29/All/_252_0"], "attr": {"T": {"type": "DT_BOOL"}, "N": {"i": "2"}}}, {"name": "StatefulPartitionedCall/assert_equal_29/Assert/AssertGuard/else/_248/assert_equal_29/Assert/AssertGuard/Identity_1", "op": "Const", "input": ["^StatefulPartitionedCall/assert_equal_29/Assert/AssertGuard/pivot_f/_250", "^ConstantFoldingCtrl/StatefulPartitionedCall/assert_equal_29/Assert/AssertGuard/StatefulPartitionedCall/assert_equal_29/All/_252_0"], "attr": {"value": {"tensor": {"dtype": "DT_BOOL", "tensorShape": {}}}, "dtype": {"type": "DT_BOOL"}}}, {"name": "StatefulPartitionedCall/SparseToDense_11", "op": "SparseToDense", "input": ["StatefulPartitionedCall/Where_11", "StatefulPartitionedCall/Cast_39", "StatefulPartitionedCall/GatherV2_11", "StatefulPartitionedCall/zeros_11"], "attr": {"T": {"type": "DT_INT64"}, "Tindices": {"type": "DT_INT64"}, "validate_indices": {"b": true}}}, {"name": "StatefulPartitionedCall/SparseToDense_13", "op": "SparseToDense", "input": ["StatefulPartitionedCall/Where_13", "StatefulPartitionedCall/Cast_41", "StatefulPartitionedCall/GatherV2_13", "StatefulPartitionedCall/zeros_13"], "attr": {"validate_indices": {"b": true}, "T": {"type": "DT_INT64"}, "Tindices": {"type": "DT_INT64"}}}, {"name": "StatefulPartitionedCall/onnx_tf_prefix_Add_90", "op": "AddV2", "input": ["StatefulPartitionedCall/onnx_tf_prefix_ReduceMean_88", "StatefulPartitionedCall/onnx_tf_prefix_Constant_89"], "attr": {"T": {"type": "DT_FLOAT"}}}, {"name": "StatefulPartitionedCall/assert_equal_31/Assert/AssertGuard/pivot_t/_261", "op": "Const", "input": ["^StatefulPartitionedCall/assert_equal_29/Assert/AssertGuard/branch_executed/_256"], "attr": {"dtype": {"type": "DT_BOOL"}, "value": {"tensor": {"dtype": "DT_BOOL", "tensorShape": {}}}}}, {"name": "StatefulPartitionedCall/assert_equal_31/Assert/AssertGuard/switch_pred/_259", "op": "Switch", "input": ["StatefulPartitionedCall/assert_equal_31/All", "StatefulPartitionedCall/assert_equal_31/All", "^StatefulPartitionedCall/assert_equal_29/Assert/AssertGuard/branch_executed/_256"], "attr": {"T": {"type": "DT_BOOL"}}}, {"name": "StatefulPartitionedCall/assert_equal_29/Assert/AssertGuard/output/_255", "op": "Merge", "input": ["Func/StatefulPartitionedCall/assert_equal_29/Assert/AssertGuard/then/_247/output/_509", "StatefulPartitionedCall/assert_equal_29/Assert/AssertGuard/else/_248/assert_equal_29/Assert/AssertGuard/Identity_1"], "attr": {"T": {"type": "DT_BOOL"}, "N": {"i": "2"}}}, {"name": "StatefulPartitionedCall/add_33", "op": "AddV2", "input": ["StatefulPartitionedCall/onnx_tf_prefix_Concat_241", "StatefulPartitionedCall/SparseToDense_11"], "attr": {"T": {"type": "DT_INT64"}}}, {"name": "StatefulPartitionedCall/add_35", "op": "AddV2", "input": ["StatefulPartitionedCall/onnx_tf_prefix_Concat_264", "StatefulPartitionedCall/SparseToDense_13"], "attr": {"T": {"type": "DT_INT64"}}}, {"name": "StatefulPartitionedCall/onnx_tf_prefix_Sqrt_91", "op": "Sqrt", "input": ["StatefulPartitionedCall/onnx_tf_prefix_Add_90"], "attr": {"T": {"type": "DT_FLOAT"}}}, {"name": "Func/StatefulPartitionedCall/assert_equal_31/Assert/AssertGuard/then/_257/output/_521", "op": "Const", "input": ["^StatefulPartitionedCall/assert_equal_31/Assert/AssertGuard/pivot_t/_261"], "attr": {"dtype": {"type": "DT_BOOL"}, "value": {"tensor": {"dtype": "DT_BOOL", "tensorShape": {}}}}}, {"name": "StatefulPartitionedCall/assert_equal_31/Assert/AssertGuard/pivot_f/_260", "op": "Identity", "input": ["StatefulPartitionedCall/assert_equal_31/Assert/AssertGuard/switch_pred/_259"], "attr": {"T": {"type": "DT_BOOL"}}}, {"name": "StatefulPartitionedCall/onnx_tf_prefix_Div_93", "op": "Reciprocal", "input": ["StatefulPartitionedCall/onnx_tf_prefix_Sqrt_91"], "attr": {"T": {"type": "DT_FLOAT"}}}, {"name": "StatefulPartitionedCall/assert_equal_31/Assert/AssertGuard/branch_executed/_266", "op": "Merge", "input": ["StatefulPartitionedCall/assert_equal_31/Assert/AssertGuard/pivot_t/_261", "StatefulPartitionedCall/assert_equal_31/Assert/AssertGuard/pivot_f/_260", "^ConstantFoldingCtrl/StatefulPartitionedCall/assert_equal_31/Assert/AssertGuard/StatefulPartitionedCall/assert_equal_31/All/_262_0"], "attr": {"N": {"i": "2"}, "T": {"type": "DT_BOOL"}}}, {"name": "StatefulPartitionedCall/assert_equal_31/Assert/AssertGuard/else/_258/assert_equal_31/Assert/AssertGuard/Identity_1", "op": "Const", "input": ["^StatefulPartitionedCall/assert_equal_31/Assert/AssertGuard/pivot_f/_260", "^ConstantFoldingCtrl/StatefulPartitionedCall/assert_equal_31/Assert/AssertGuard/StatefulPartitionedCall/assert_equal_31/All/_262_0"], "attr": {"value": {"tensor": {"dtype": "DT_BOOL", "tensorShape": {}}}, "dtype": {"type": "DT_BOOL"}}}, {"name": "StatefulPartitionedCall/onnx_tf_prefix_Mul_94", "op": "Mul", "input": ["StatefulPartitionedCall/onnx_tf_prefix_LeakyRelu_86", "StatefulPartitionedCall/onnx_tf_prefix_Div_93"], "attr": {"T": {"type": "DT_FLOAT"}}}, {"name": "StatefulPartitionedCall/assert_equal_33/Assert/AssertGuard/pivot_t/_271", "op": "Const", "input": ["^StatefulPartitionedCall/assert_equal_31/Assert/AssertGuard/branch_executed/_266"], "attr": {"dtype": {"type": "DT_BOOL"}, "value": {"tensor": {"dtype": "DT_BOOL", "tensorShape": {}}}}}, {"name": "StatefulPartitionedCall/assert_equal_33/Assert/AssertGuard/switch_pred/_269", "op": "Switch", "input": ["StatefulPartitionedCall/assert_equal_33/All", "StatefulPartitionedCall/assert_equal_33/All", "^StatefulPartitionedCall/assert_equal_31/Assert/AssertGuard/branch_executed/_266"], "attr": {"T": {"type": "DT_BOOL"}}}, {"name": "StatefulPartitionedCall/assert_equal_31/Assert/AssertGuard/output/_265", "op": "Merge", "input": ["Func/StatefulPartitionedCall/assert_equal_31/Assert/AssertGuard/then/_257/output/_521", "StatefulPartitionedCall/assert_equal_31/Assert/AssertGuard/else/_258/assert_equal_31/Assert/AssertGuard/Identity_1"], "attr": {"N": {"i": "2"}, "T": {"type": "DT_BOOL"}}}, {"name": "StatefulPartitionedCall/Pad_2", "op": "Pad", "input": ["StatefulPartitionedCall/onnx_tf_prefix_Mul_94", "StatefulPartitionedCall/Const_7"], "attr": {"T": {"type": "DT_FLOAT"}, "Tpaddings": {"type": "DT_INT32"}}}, {"name": "Func/StatefulPartitionedCall/assert_equal_33/Assert/AssertGuard/then/_267/output/_533", "op": "Const", "input": ["^StatefulPartitionedCall/assert_equal_33/Assert/AssertGuard/pivot_t/_271"], "attr": {"dtype": {"type": "DT_BOOL"}, "value": {"tensor": {"dtype": "DT_BOOL", "tensorShape": {}}}}}, {"name": "StatefulPartitionedCall/assert_equal_33/Assert/AssertGuard/pivot_f/_270", "op": "Identity", "input": ["StatefulPartitionedCall/assert_equal_33/Assert/AssertGuard/switch_pred/_269"], "attr": {"T": {"type": "DT_BOOL"}}}, {"name": "StatefulPartitionedCall/transpose_8", "op": "Transpose", "input": ["StatefulPartitionedCall/Pad_2", "StatefulPartitionedCall/transpose_8/perm"], "attr": {"Tperm": {"type": "DT_INT32"}, "T": {"type": "DT_FLOAT"}}}, {"name": "StatefulPartitionedCall/assert_equal_33/Assert/AssertGuard/branch_executed/_276", "op": "Merge", "input": ["StatefulPartitionedCall/assert_equal_33/Assert/AssertGuard/pivot_t/_271", "StatefulPartitionedCall/assert_equal_33/Assert/AssertGuard/pivot_f/_270", "^ConstantFoldingCtrl/StatefulPartitionedCall/assert_equal_33/Assert/AssertGuard/StatefulPartitionedCall/assert_equal_33/All/_272_0"], "attr": {"T": {"type": "DT_BOOL"}, "N": {"i": "2"}}}, {"name": "StatefulPartitionedCall/assert_equal_33/Assert/AssertGuard/else/_268/assert_equal_33/Assert/AssertGuard/Identity_1", "op": "Const", "input": ["^StatefulPartitionedCall/assert_equal_33/Assert/AssertGuard/pivot_f/_270", "^ConstantFoldingCtrl/StatefulPartitionedCall/assert_equal_33/Assert/AssertGuard/StatefulPartitionedCall/assert_equal_33/All/_272_0"], "attr": {"value": {"tensor": {"dtype": "DT_BOOL", "tensorShape": {}}}, "dtype": {"type": "DT_BOOL"}}}, {"name": "StatefulPartitionedCall/convolution_2", "op": "Conv2D", "input": ["StatefulPartitionedCall/transpose_8", "StatefulPartitionedCall/split_2"], "device": "/device:CPU:0", "attr": {"strides": {"list": {"i": ["1", "1", "1", "1"]}}, "padding": {"s": "VkFMSUQ="}, "dilations": {"list": {"i": ["1", "1", "1", "1"]}}, "data_format": {"s": "TkhXQw=="}, "T": {"type": "DT_FLOAT"}, "use_cudnn_on_gpu": {"b": true}, "explicit_paddings": {"list": {}}}}, {"name": "StatefulPartitionedCall/assert_equal_35/Assert/AssertGuard/pivot_t/_281", "op": "Const", "input": ["^StatefulPartitionedCall/assert_equal_33/Assert/AssertGuard/branch_executed/_276"], "attr": {"value": {"tensor": {"dtype": "DT_BOOL", "tensorShape": {}}}, "dtype": {"type": "DT_BOOL"}}}, {"name": "StatefulPartitionedCall/assert_equal_35/Assert/AssertGuard/switch_pred/_279", "op": "Switch", "input": ["StatefulPartitionedCall/assert_equal_35/All", "StatefulPartitionedCall/assert_equal_35/All", "^StatefulPartitionedCall/assert_equal_33/Assert/AssertGuard/branch_executed/_276"], "attr": {"T": {"type": "DT_BOOL"}}}, {"name": "StatefulPartitionedCall/assert_equal_33/Assert/AssertGuard/output/_275", "op": "Merge", "input": ["Func/StatefulPartitionedCall/assert_equal_33/Assert/AssertGuard/then/_267/output/_533", "StatefulPartitionedCall/assert_equal_33/Assert/AssertGuard/else/_268/assert_equal_33/Assert/AssertGuard/Identity_1"], "attr": {"T": {"type": "DT_BOOL"}, "N": {"i": "2"}}}, {"name": "StatefulPartitionedCall/Add_13", "op": "AddV2", "input": ["StatefulPartitionedCall/convolution_2", "unknown_22"], "attr": {"T": {"type": "DT_FLOAT"}}}, {"name": "Func/StatefulPartitionedCall/assert_equal_35/Assert/AssertGuard/then/_277/output/_545", "op": "Const", "input": ["^StatefulPartitionedCall/assert_equal_35/Assert/AssertGuard/pivot_t/_281"], "attr": {"dtype": {"type": "DT_BOOL"}, "value": {"tensor": {"dtype": "DT_BOOL", "tensorShape": {}}}}}, {"name": "StatefulPartitionedCall/assert_equal_35/Assert/AssertGuard/pivot_f/_280", "op": "Identity", "input": ["StatefulPartitionedCall/assert_equal_35/Assert/AssertGuard/switch_pred/_279"], "attr": {"T": {"type": "DT_BOOL"}}}, {"name": "StatefulPartitionedCall/onnx_tf_prefix_Concat_302", "op": "Const", "input": ["^StatefulPartitionedCall/assert_equal_29/Assert/AssertGuard/output/_255", "^StatefulPartitionedCall/assert_equal_31/Assert/AssertGuard/output/_265", "^StatefulPartitionedCall/assert_equal_33/Assert/AssertGuard/output/_275"], "attr": {"value": {"tensor": {"dtype": "DT_INT64", "tensorShape": {"dim": [{"size": "6"}]}}}, "dtype": {"type": "DT_INT64"}}}, {"name": "StatefulPartitionedCall/Where_14", "op": "Const", "input": ["^StatefulPartitionedCall/assert_equal_29/Assert/AssertGuard/output/_255", "^StatefulPartitionedCall/assert_equal_31/Assert/AssertGuard/output/_265", "^StatefulPartitionedCall/assert_equal_33/Assert/AssertGuard/output/_275"], "attr": {"value": {"tensor": {"dtype": "DT_INT64", "tensorShape": {"dim": [{}, {"size": "1"}]}}}, "dtype": {"type": "DT_INT64"}}}, {"name": "StatefulPartitionedCall/GatherV2_14", "op": "Const", "input": ["^StatefulPartitionedCall/assert_equal_29/Assert/AssertGuard/output/_255", "^StatefulPartitionedCall/assert_equal_31/Assert/AssertGuard/output/_265", "^StatefulPartitionedCall/assert_equal_33/Assert/AssertGuard/output/_275"], "attr": {"value": {"tensor": {"dtype": "DT_INT64", "tensorShape": {"dim": [{}]}}}, "dtype": {"type": "DT_INT64"}}}, {"name": "StatefulPartitionedCall/ones_4", "op": "Const", "input": ["^StatefulPartitionedCall/assert_equal_29/Assert/AssertGuard/output/_255", "^StatefulPartitionedCall/assert_equal_31/Assert/AssertGuard/output/_265", "^StatefulPartitionedCall/assert_equal_33/Assert/AssertGuard/output/_275"], "attr": {"value": {"tensor": {"dtype": "DT_FLOAT", "tensorShape": {"dim": [{"size": "1"}, {"size": "256"}, {"size": "64"}, {"size": "2"}, {"size": "64"}, {"size": "2"}]}}}, "dtype": {"type": "DT_FLOAT"}}}, {"name": "StatefulPartitionedCall/onnx_tf_prefix_Concat_325", "op": "Const", "input": ["^StatefulPartitionedCall/assert_equal_29/Assert/AssertGuard/output/_255", "^StatefulPartitionedCall/assert_equal_31/Assert/AssertGuard/output/_265", "^StatefulPartitionedCall/assert_equal_33/Assert/AssertGuard/output/_275"], "attr": {"value": {"tensor": {"dtype": "DT_INT64", "tensorShape": {"dim": [{"size": "4"}]}}}, "dtype": {"type": "DT_INT64"}}}, {"name": "StatefulPartitionedCall/Where_16", "op": "Const", "input": ["^StatefulPartitionedCall/assert_equal_29/Assert/AssertGuard/output/_255", "^StatefulPartitionedCall/assert_equal_31/Assert/AssertGuard/output/_265", "^StatefulPartitionedCall/assert_equal_33/Assert/AssertGuard/output/_275"], "attr": {"value": {"tensor": {"dtype": "DT_INT64", "tensorShape": {"dim": [{}, {"size": "1"}]}}}, "dtype": {"type": "DT_INT64"}}}, {"name": "StatefulPartitionedCall/GatherV2_16", "op": "Const", "input": ["^StatefulPartitionedCall/assert_equal_29/Assert/AssertGuard/output/_255", "^StatefulPartitionedCall/assert_equal_31/Assert/AssertGuard/output/_265", "^StatefulPartitionedCall/assert_equal_33/Assert/AssertGuard/output/_275"], "attr": {"value": {"tensor": {"dtype": "DT_INT64", "tensorShape": {"dim": [{}]}}}, "dtype": {"type": "DT_INT64"}}}, {"name": "StatefulPartitionedCall/transpose_9", "op": "Transpose", "input": ["StatefulPartitionedCall/Add_13", "StatefulPartitionedCall/transpose_9/perm"], "attr": {"T": {"type": "DT_FLOAT"}, "Tperm": {"type": "DT_INT32"}}}, {"name": "StatefulPartitionedCall/assert_equal_35/Assert/AssertGuard/branch_executed/_286", "op": "Merge", "input": ["StatefulPartitionedCall/assert_equal_35/Assert/AssertGuard/pivot_t/_281", "StatefulPartitionedCall/assert_equal_35/Assert/AssertGuard/pivot_f/_280", "^ConstantFoldingCtrl/StatefulPartitionedCall/assert_equal_35/Assert/AssertGuard/StatefulPartitionedCall/assert_equal_35/All/_282_0"], "attr": {"T": {"type": "DT_BOOL"}, "N": {"i": "2"}}}, {"name": "StatefulPartitionedCall/assert_equal_35/Assert/AssertGuard/else/_278/assert_equal_35/Assert/AssertGuard/Identity_1", "op": "Const", "input": ["^StatefulPartitionedCall/assert_equal_35/Assert/AssertGuard/pivot_f/_280", "^ConstantFoldingCtrl/StatefulPartitionedCall/assert_equal_35/Assert/AssertGuard/StatefulPartitionedCall/assert_equal_35/All/_282_0"], "attr": {"dtype": {"type": "DT_BOOL"}, "value": {"tensor": {"dtype": "DT_BOOL", "tensorShape": {}}}}}, {"name": "StatefulPartitionedCall/SparseToDense_14", "op": "SparseToDense", "input": ["StatefulPartitionedCall/Where_14", "StatefulPartitionedCall/Cast_48", "StatefulPartitionedCall/GatherV2_14", "StatefulPartitionedCall/zeros_14"], "attr": {"Tindices": {"type": "DT_INT64"}, "validate_indices": {"b": true}, "T": {"type": "DT_INT64"}}}, {"name": "StatefulPartitionedCall/SparseToDense_16", "op": "SparseToDense", "input": ["StatefulPartitionedCall/Where_16", "StatefulPartitionedCall/Cast_50", "StatefulPartitionedCall/GatherV2_16", "StatefulPartitionedCall/zeros_16"], "attr": {"T": {"type": "DT_INT64"}, "validate_indices": {"b": true}, "Tindices": {"type": "DT_INT64"}}}, {"name": "StatefulPartitionedCall/onnx_tf_prefix_Mul_97", "op": "Mul", "input": ["StatefulPartitionedCall/transpose_9", "StatefulPartitionedCall/onnx_tf_prefix_Constant_96"], "attr": {"T": {"type": "DT_FLOAT"}}}, {"name": "StatefulPartitionedCall/assert_equal_37/Assert/AssertGuard/pivot_t/_291", "op": "Const", "input": ["^StatefulPartitionedCall/assert_equal_35/Assert/AssertGuard/branch_executed/_286"], "attr": {"dtype": {"type": "DT_BOOL"}, "value": {"tensor": {"dtype": "DT_BOOL", "tensorShape": {}}}}}, {"name": "StatefulPartitionedCall/assert_equal_37/Assert/AssertGuard/switch_pred/_289", "op": "Switch", "input": ["StatefulPartitionedCall/assert_equal_37/All", "StatefulPartitionedCall/assert_equal_37/All", "^StatefulPartitionedCall/assert_equal_35/Assert/AssertGuard/branch_executed/_286"], "attr": {"T": {"type": "DT_BOOL"}}}, {"name": "StatefulPartitionedCall/assert_equal_35/Assert/AssertGuard/output/_285", "op": "Merge", "input": ["Func/StatefulPartitionedCall/assert_equal_35/Assert/AssertGuard/then/_277/output/_545", "StatefulPartitionedCall/assert_equal_35/Assert/AssertGuard/else/_278/assert_equal_35/Assert/AssertGuard/Identity_1"], "attr": {"N": {"i": "2"}, "T": {"type": "DT_BOOL"}}}, {"name": "StatefulPartitionedCall/add_41", "op": "AddV2", "input": ["StatefulPartitionedCall/onnx_tf_prefix_Concat_302", "StatefulPartitionedCall/SparseToDense_14"], "attr": {"T": {"type": "DT_INT64"}}}, {"name": "StatefulPartitionedCall/add_43", "op": "AddV2", "input": ["StatefulPartitionedCall/onnx_tf_prefix_Concat_325", "StatefulPartitionedCall/SparseToDense_16"], "attr": {"T": {"type": "DT_INT64"}}}, {"name": "StatefulPartitionedCall/onnx_tf_prefix_LeakyRelu_98", "op": "LeakyRelu", "input": ["StatefulPartitionedCall/onnx_tf_prefix_Mul_97"], "attr": {"alpha": {"f": 0.2}, "T": {"type": "DT_FLOAT"}}}, {"name": "Func/StatefulPartitionedCall/assert_equal_37/Assert/AssertGuard/then/_287/output/_557", "op": "Const", "input": ["^StatefulPartitionedCall/assert_equal_37/Assert/AssertGuard/pivot_t/_291"], "attr": {"value": {"tensor": {"dtype": "DT_BOOL", "tensorShape": {}}}, "dtype": {"type": "DT_BOOL"}}}, {"name": "StatefulPartitionedCall/assert_equal_37/Assert/AssertGuard/pivot_f/_290", "op": "Identity", "input": ["StatefulPartitionedCall/assert_equal_37/Assert/AssertGuard/switch_pred/_289"], "attr": {"T": {"type": "DT_BOOL"}}}, {"name": "StatefulPartitionedCall/onnx_tf_prefix_Pow_99", "op": "Square", "input": ["StatefulPartitionedCall/onnx_tf_prefix_LeakyRelu_98"], "attr": {"T": {"type": "DT_FLOAT"}}}, {"name": "StatefulPartitionedCall/assert_equal_37/Assert/AssertGuard/branch_executed/_296", "op": "Merge", "input": ["StatefulPartitionedCall/assert_equal_37/Assert/AssertGuard/pivot_t/_291", "StatefulPartitionedCall/assert_equal_37/Assert/AssertGuard/pivot_f/_290", "^ConstantFoldingCtrl/StatefulPartitionedCall/assert_equal_37/Assert/AssertGuard/StatefulPartitionedCall/assert_equal_37/All/_292_0"], "attr": {"N": {"i": "2"}, "T": {"type": "DT_BOOL"}}}, {"name": "StatefulPartitionedCall/assert_equal_37/Assert/AssertGuard/else/_288/assert_equal_37/Assert/AssertGuard/Identity_1", "op": "Const", "input": ["^StatefulPartitionedCall/assert_equal_37/Assert/AssertGuard/pivot_f/_290", "^ConstantFoldingCtrl/StatefulPartitionedCall/assert_equal_37/Assert/AssertGuard/StatefulPartitionedCall/assert_equal_37/All/_292_0"], "attr": {"value": {"tensor": {"dtype": "DT_BOOL", "tensorShape": {}}}, "dtype": {"type": "DT_BOOL"}}}, {"name": "StatefulPartitionedCall/onnx_tf_prefix_ReduceMean_100", "op": "Mean", "input": ["StatefulPartitionedCall/onnx_tf_prefix_Pow_99", "StatefulPartitionedCall/onnx_tf_prefix_ReduceMean_100/reduction_indices"], "attr": {"keep_dims": {"b": true}, "T": {"type": "DT_FLOAT"}, "Tidx": {"type": "DT_INT32"}}}, {"name": "StatefulPartitionedCall/assert_equal_39/Assert/AssertGuard/pivot_t/_301", "op": "Const", "input": ["^StatefulPartitionedCall/assert_equal_37/Assert/AssertGuard/branch_executed/_296"], "attr": {"dtype": {"type": "DT_BOOL"}, "value": {"tensor": {"dtype": "DT_BOOL", "tensorShape": {}}}}}, {"name": "StatefulPartitionedCall/assert_equal_39/Assert/AssertGuard/switch_pred/_299", "op": "Switch", "input": ["StatefulPartitionedCall/assert_equal_39/All", "StatefulPartitionedCall/assert_equal_39/All", "^StatefulPartitionedCall/assert_equal_37/Assert/AssertGuard/branch_executed/_296"], "attr": {"T": {"type": "DT_BOOL"}}}, {"name": "StatefulPartitionedCall/assert_equal_37/Assert/AssertGuard/output/_295", "op": "Merge", "input": ["Func/StatefulPartitionedCall/assert_equal_37/Assert/AssertGuard/then/_287/output/_557", "StatefulPartitionedCall/assert_equal_37/Assert/AssertGuard/else/_288/assert_equal_37/Assert/AssertGuard/Identity_1"], "attr": {"N": {"i": "2"}, "T": {"type": "DT_BOOL"}}}, {"name": "StatefulPartitionedCall/onnx_tf_prefix_Add_102", "op": "AddV2", "input": ["StatefulPartitionedCall/onnx_tf_prefix_ReduceMean_100", "StatefulPartitionedCall/onnx_tf_prefix_Constant_101"], "attr": {"T": {"type": "DT_FLOAT"}}}, {"name": "Func/StatefulPartitionedCall/assert_equal_39/Assert/AssertGuard/then/_297/output/_569", "op": "Const", "input": ["^StatefulPartitionedCall/assert_equal_39/Assert/AssertGuard/pivot_t/_301"], "attr": {"dtype": {"type": "DT_BOOL"}, "value": {"tensor": {"dtype": "DT_BOOL", "tensorShape": {}}}}}, {"name": "StatefulPartitionedCall/assert_equal_39/Assert/AssertGuard/pivot_f/_300", "op": "Identity", "input": ["StatefulPartitionedCall/assert_equal_39/Assert/AssertGuard/switch_pred/_299"], "attr": {"T": {"type": "DT_BOOL"}}}, {"name": "StatefulPartitionedCall/onnx_tf_prefix_Sqrt_103", "op": "Sqrt", "input": ["StatefulPartitionedCall/onnx_tf_prefix_Add_102"], "attr": {"T": {"type": "DT_FLOAT"}}}, {"name": "StatefulPartitionedCall/assert_equal_39/Assert/AssertGuard/branch_executed/_306", "op": "Merge", "input": ["StatefulPartitionedCall/assert_equal_39/Assert/AssertGuard/pivot_t/_301", "StatefulPartitionedCall/assert_equal_39/Assert/AssertGuard/pivot_f/_300", "^ConstantFoldingCtrl/StatefulPartitionedCall/assert_equal_39/Assert/AssertGuard/StatefulPartitionedCall/assert_equal_39/All/_302_0"], "attr": {"N": {"i": "2"}, "T": {"type": "DT_BOOL"}}}, {"name": "StatefulPartitionedCall/assert_equal_39/Assert/AssertGuard/else/_298/assert_equal_39/Assert/AssertGuard/Identity_1", "op": "Const", "input": ["^StatefulPartitionedCall/assert_equal_39/Assert/AssertGuard/pivot_f/_300", "^ConstantFoldingCtrl/StatefulPartitionedCall/assert_equal_39/Assert/AssertGuard/StatefulPartitionedCall/assert_equal_39/All/_302_0"], "attr": {"value": {"tensor": {"dtype": "DT_BOOL", "tensorShape": {}}}, "dtype": {"type": "DT_BOOL"}}}, {"name": "StatefulPartitionedCall/onnx_tf_prefix_Div_105", "op": "Reciprocal", "input": ["StatefulPartitionedCall/onnx_tf_prefix_Sqrt_103"], "attr": {"T": {"type": "DT_FLOAT"}}}, {"name": "StatefulPartitionedCall/assert_equal_41/Assert/AssertGuard/pivot_t/_311", "op": "Const", "input": ["^StatefulPartitionedCall/assert_equal_39/Assert/AssertGuard/branch_executed/_306"], "attr": {"value": {"tensor": {"dtype": "DT_BOOL", "tensorShape": {}}}, "dtype": {"type": "DT_BOOL"}}}, {"name": "StatefulPartitionedCall/assert_equal_41/Assert/AssertGuard/switch_pred/_309", "op": "Switch", "input": ["StatefulPartitionedCall/assert_equal_41/All", "StatefulPartitionedCall/assert_equal_41/All", "^StatefulPartitionedCall/assert_equal_39/Assert/AssertGuard/branch_executed/_306"], "attr": {"T": {"type": "DT_BOOL"}}}, {"name": "StatefulPartitionedCall/assert_equal_39/Assert/AssertGuard/output/_305", "op": "Merge", "input": ["Func/StatefulPartitionedCall/assert_equal_39/Assert/AssertGuard/then/_297/output/_569", "StatefulPartitionedCall/assert_equal_39/Assert/AssertGuard/else/_298/assert_equal_39/Assert/AssertGuard/Identity_1"], "attr": {"N": {"i": "2"}, "T": {"type": "DT_BOOL"}}}, {"name": "StatefulPartitionedCall/onnx_tf_prefix_Mul_106", "op": "Mul", "input": ["StatefulPartitionedCall/onnx_tf_prefix_LeakyRelu_98", "StatefulPartitionedCall/onnx_tf_prefix_Div_105"], "attr": {"T": {"type": "DT_FLOAT"}}}, {"name": "Func/StatefulPartitionedCall/assert_equal_41/Assert/AssertGuard/then/_307/output/_581", "op": "Const", "input": ["^StatefulPartitionedCall/assert_equal_41/Assert/AssertGuard/pivot_t/_311"], "attr": {"dtype": {"type": "DT_BOOL"}, "value": {"tensor": {"dtype": "DT_BOOL", "tensorShape": {}}}}}, {"name": "StatefulPartitionedCall/assert_equal_41/Assert/AssertGuard/pivot_f/_310", "op": "Identity", "input": ["StatefulPartitionedCall/assert_equal_41/Assert/AssertGuard/switch_pred/_309"], "attr": {"T": {"type": "DT_BOOL"}}}, {"name": "StatefulPartitionedCall/onnx_tf_prefix_Concat_363", "op": "Const", "input": ["^StatefulPartitionedCall/assert_equal_35/Assert/AssertGuard/output/_285", "^StatefulPartitionedCall/assert_equal_37/Assert/AssertGuard/output/_295", "^StatefulPartitionedCall/assert_equal_39/Assert/AssertGuard/output/_305"], "attr": {"value": {"tensor": {"dtype": "DT_INT64", "tensorShape": {"dim": [{"size": "6"}]}}}, "dtype": {"type": "DT_INT64"}}}, {"name": "StatefulPartitionedCall/Where_17", "op": "Const", "input": ["^StatefulPartitionedCall/assert_equal_35/Assert/AssertGuard/output/_285", "^StatefulPartitionedCall/assert_equal_37/Assert/AssertGuard/output/_295", "^StatefulPartitionedCall/assert_equal_39/Assert/AssertGuard/output/_305"], "attr": {"value": {"tensor": {"dtype": "DT_INT64", "tensorShape": {"dim": [{}, {"size": "1"}]}}}, "dtype": {"type": "DT_INT64"}}}, {"name": "StatefulPartitionedCall/GatherV2_17", "op": "Const", "input": ["^StatefulPartitionedCall/assert_equal_35/Assert/AssertGuard/output/_285", "^StatefulPartitionedCall/assert_equal_37/Assert/AssertGuard/output/_295", "^StatefulPartitionedCall/assert_equal_39/Assert/AssertGuard/output/_305"], "attr": {"value": {"tensor": {"dtype": "DT_INT64", "tensorShape": {"dim": [{}]}}}, "dtype": {"type": "DT_INT64"}}}, {"name": "StatefulPartitionedCall/ones_5", "op": "Const", "input": ["^StatefulPartitionedCall/assert_equal_35/Assert/AssertGuard/output/_285", "^StatefulPartitionedCall/assert_equal_37/Assert/AssertGuard/output/_295", "^StatefulPartitionedCall/assert_equal_39/Assert/AssertGuard/output/_305"], "attr": {"dtype": {"type": "DT_FLOAT"}, "value": {"tensor": {"dtype": "DT_FLOAT", "tensorShape": {"dim": [{"size": "1"}, {"size": "128"}, {"size": "128"}, {"size": "2"}, {"size": "128"}, {"size": "2"}]}}}}}, {"name": "StatefulPartitionedCall/onnx_tf_prefix_Concat_386", "op": "Const", "input": ["^StatefulPartitionedCall/assert_equal_35/Assert/AssertGuard/output/_285", "^StatefulPartitionedCall/assert_equal_37/Assert/AssertGuard/output/_295", "^StatefulPartitionedCall/assert_equal_39/Assert/AssertGuard/output/_305"], "attr": {"value": {"tensor": {"dtype": "DT_INT64", "tensorShape": {"dim": [{"size": "4"}]}}}, "dtype": {"type": "DT_INT64"}}}, {"name": "StatefulPartitionedCall/Where_19", "op": "Const", "input": ["^StatefulPartitionedCall/assert_equal_35/Assert/AssertGuard/output/_285", "^StatefulPartitionedCall/assert_equal_37/Assert/AssertGuard/output/_295", "^StatefulPartitionedCall/assert_equal_39/Assert/AssertGuard/output/_305"], "attr": {"value": {"tensor": {"dtype": "DT_INT64", "tensorShape": {"dim": [{}, {"size": "1"}]}}}, "dtype": {"type": "DT_INT64"}}}, {"name": "StatefulPartitionedCall/GatherV2_19", "op": "Const", "input": ["^StatefulPartitionedCall/assert_equal_35/Assert/AssertGuard/output/_285", "^StatefulPartitionedCall/assert_equal_37/Assert/AssertGuard/output/_295", "^StatefulPartitionedCall/assert_equal_39/Assert/AssertGuard/output/_305"], "attr": {"value": {"tensor": {"dtype": "DT_INT64", "tensorShape": {"dim": [{}]}}}, "dtype": {"type": "DT_INT64"}}}, {"name": "StatefulPartitionedCall/onnx_tf_prefix_Reshape_120", "op": "Reshape", "input": ["StatefulPartitionedCall/onnx_tf_prefix_Mul_106", "StatefulPartitionedCall/add_17"], "attr": {"T": {"type": "DT_FLOAT"}, "Tshape": {"type": "DT_INT64"}}}, {"name": "StatefulPartitionedCall/assert_equal_41/Assert/AssertGuard/branch_executed/_316", "op": "Merge", "input": ["StatefulPartitionedCall/assert_equal_41/Assert/AssertGuard/pivot_t/_311", "StatefulPartitionedCall/assert_equal_41/Assert/AssertGuard/pivot_f/_310", "^ConstantFoldingCtrl/StatefulPartitionedCall/assert_equal_41/Assert/AssertGuard/StatefulPartitionedCall/assert_equal_41/All/_312_0"], "attr": {"N": {"i": "2"}, "T": {"type": "DT_BOOL"}}}, {"name": "StatefulPartitionedCall/assert_equal_41/Assert/AssertGuard/else/_308/assert_equal_41/Assert/AssertGuard/Identity_1", "op": "Const", "input": ["^StatefulPartitionedCall/assert_equal_41/Assert/AssertGuard/pivot_f/_310", "^ConstantFoldingCtrl/StatefulPartitionedCall/assert_equal_41/Assert/AssertGuard/StatefulPartitionedCall/assert_equal_41/All/_312_0"], "attr": {"value": {"tensor": {"dtype": "DT_BOOL", "tensorShape": {}}}, "dtype": {"type": "DT_BOOL"}}}, {"name": "StatefulPartitionedCall/SparseToDense_17", "op": "SparseToDense", "input": ["StatefulPartitionedCall/Where_17", "StatefulPartitionedCall/Cast_57", "StatefulPartitionedCall/GatherV2_17", "StatefulPartitionedCall/zeros_17"], "attr": {"Tindices": {"type": "DT_INT64"}, "validate_indices": {"b": true}, "T": {"type": "DT_INT64"}}}, {"name": "StatefulPartitionedCall/SparseToDense_19", "op": "SparseToDense", "input": ["StatefulPartitionedCall/Where_19", "StatefulPartitionedCall/Cast_59", "StatefulPartitionedCall/GatherV2_19", "StatefulPartitionedCall/zeros_19"], "attr": {"Tindices": {"type": "DT_INT64"}, "validate_indices": {"b": true}, "T": {"type": "DT_INT64"}}}, {"name": "StatefulPartitionedCall/mul_3", "op": "Mul", "input": ["StatefulPartitionedCall/onnx_tf_prefix_Reshape_120", "StatefulPartitionedCall/ones_1"], "attr": {"T": {"type": "DT_FLOAT"}}}, {"name": "StatefulPartitionedCall/assert_equal_43/Assert/AssertGuard/pivot_t/_321", "op": "Const", "input": ["^StatefulPartitionedCall/assert_equal_41/Assert/AssertGuard/branch_executed/_316"], "attr": {"value": {"tensor": {"dtype": "DT_BOOL", "tensorShape": {}}}, "dtype": {"type": "DT_BOOL"}}}, {"name": "StatefulPartitionedCall/assert_equal_43/Assert/AssertGuard/switch_pred/_319", "op": "Switch", "input": ["StatefulPartitionedCall/assert_equal_43/All", "StatefulPartitionedCall/assert_equal_43/All", "^StatefulPartitionedCall/assert_equal_41/Assert/AssertGuard/branch_executed/_316"], "attr": {"T": {"type": "DT_BOOL"}}}, {"name": "StatefulPartitionedCall/assert_equal_41/Assert/AssertGuard/output/_315", "op": "Merge", "input": ["Func/StatefulPartitionedCall/assert_equal_41/Assert/AssertGuard/then/_307/output/_581", "StatefulPartitionedCall/assert_equal_41/Assert/AssertGuard/else/_308/assert_equal_41/Assert/AssertGuard/Identity_1"], "attr": {"N": {"i": "2"}, "T": {"type": "DT_BOOL"}}}, {"name": "StatefulPartitionedCall/add_49", "op": "AddV2", "input": ["StatefulPartitionedCall/onnx_tf_prefix_Concat_363", "StatefulPartitionedCall/SparseToDense_17"], "attr": {"T": {"type": "DT_INT64"}}}, {"name": "StatefulPartitionedCall/add_51", "op": "AddV2", "input": ["StatefulPartitionedCall/onnx_tf_prefix_Concat_386", "StatefulPartitionedCall/SparseToDense_19"], "attr": {"T": {"type": "DT_INT64"}}}, {"name": "StatefulPartitionedCall/onnx_tf_prefix_Reshape_143", "op": "Reshape", "input": ["StatefulPartitionedCall/mul_3", "StatefulPartitionedCall/add_19"], "attr": {"Tshape": {"type": "DT_INT64"}, "T": {"type": "DT_FLOAT"}}}, {"name": "Func/StatefulPartitionedCall/assert_equal_43/Assert/AssertGuard/then/_317/output/_593", "op": "Const", "input": ["^StatefulPartitionedCall/assert_equal_43/Assert/AssertGuard/pivot_t/_321"], "attr": {"value": {"tensor": {"dtype": "DT_BOOL", "tensorShape": {}}}, "dtype": {"type": "DT_BOOL"}}}, {"name": "StatefulPartitionedCall/assert_equal_43/Assert/AssertGuard/pivot_f/_320", "op": "Identity", "input": ["StatefulPartitionedCall/assert_equal_43/Assert/AssertGuard/switch_pred/_319"], "attr": {"T": {"type": "DT_BOOL"}}}, {"name": "StatefulPartitionedCall/Pad_3", "op": "Pad", "input": ["StatefulPartitionedCall/onnx_tf_prefix_Reshape_143", "StatefulPartitionedCall/Const_11"], "attr": {"Tpaddings": {"type": "DT_INT32"}, "T": {"type": "DT_FLOAT"}}}, {"name": "StatefulPartitionedCall/assert_equal_43/Assert/AssertGuard/branch_executed/_326", "op": "Merge", "input": ["StatefulPartitionedCall/assert_equal_43/Assert/AssertGuard/pivot_t/_321", "StatefulPartitionedCall/assert_equal_43/Assert/AssertGuard/pivot_f/_320", "^ConstantFoldingCtrl/StatefulPartitionedCall/assert_equal_43/Assert/AssertGuard/StatefulPartitionedCall/assert_equal_43/All/_322_0"], "attr": {"T": {"type": "DT_BOOL"}, "N": {"i": "2"}}}, {"name": "StatefulPartitionedCall/assert_equal_43/Assert/AssertGuard/else/_318/assert_equal_43/Assert/AssertGuard/Identity_1", "op": "Const", "input": ["^StatefulPartitionedCall/assert_equal_43/Assert/AssertGuard/pivot_f/_320", "^ConstantFoldingCtrl/StatefulPartitionedCall/assert_equal_43/Assert/AssertGuard/StatefulPartitionedCall/assert_equal_43/All/_322_0"], "attr": {"value": {"tensor": {"dtype": "DT_BOOL", "tensorShape": {}}}, "dtype": {"type": "DT_BOOL"}}}, {"name": "StatefulPartitionedCall/transpose_11", "op": "Transpose", "input": ["StatefulPartitionedCall/Pad_3", "StatefulPartitionedCall/transpose_11/perm"], "attr": {"T": {"type": "DT_FLOAT"}, "Tperm": {"type": "DT_INT32"}}}, {"name": "StatefulPartitionedCall/assert_equal_45/Assert/AssertGuard/pivot_t/_331", "op": "Const", "input": ["^StatefulPartitionedCall/assert_equal_43/Assert/AssertGuard/branch_executed/_326"], "attr": {"dtype": {"type": "DT_BOOL"}, "value": {"tensor": {"dtype": "DT_BOOL", "tensorShape": {}}}}}, {"name": "StatefulPartitionedCall/assert_equal_45/Assert/AssertGuard/switch_pred/_329", "op": "Switch", "input": ["StatefulPartitionedCall/assert_equal_45/All", "StatefulPartitionedCall/assert_equal_45/All", "^StatefulPartitionedCall/assert_equal_43/Assert/AssertGuard/branch_executed/_326"], "attr": {"T": {"type": "DT_BOOL"}}}, {"name": "StatefulPartitionedCall/assert_equal_43/Assert/AssertGuard/output/_325", "op": "Merge", "input": ["Func/StatefulPartitionedCall/assert_equal_43/Assert/AssertGuard/then/_317/output/_593", "StatefulPartitionedCall/assert_equal_43/Assert/AssertGuard/else/_318/assert_equal_43/Assert/AssertGuard/Identity_1"], "attr": {"T": {"type": "DT_BOOL"}, "N": {"i": "2"}}}, {"name": "StatefulPartitionedCall/convolution_3", "op": "Conv2D", "input": ["StatefulPartitionedCall/transpose_11", "StatefulPartitionedCall/split_3"], "device": "/device:CPU:0", "attr": {"dilations": {"list": {"i": ["1", "1", "1", "1"]}}, "data_format": {"s": "TkhXQw=="}, "padding": {"s": "VkFMSUQ="}, "use_cudnn_on_gpu": {"b": true}, "strides": {"list": {"i": ["1", "1", "1", "1"]}}, "explicit_paddings": {"list": {}}, "T": {"type": "DT_FLOAT"}}}, {"name": "Func/StatefulPartitionedCall/assert_equal_45/Assert/AssertGuard/then/_327/output/_605", "op": "Const", "input": ["^StatefulPartitionedCall/assert_equal_45/Assert/AssertGuard/pivot_t/_331"], "attr": {"value": {"tensor": {"dtype": "DT_BOOL", "tensorShape": {}}}, "dtype": {"type": "DT_BOOL"}}}, {"name": "StatefulPartitionedCall/assert_equal_45/Assert/AssertGuard/pivot_f/_330", "op": "Identity", "input": ["StatefulPartitionedCall/assert_equal_45/Assert/AssertGuard/switch_pred/_329"], "attr": {"T": {"type": "DT_BOOL"}}}, {"name": "StatefulPartitionedCall/Add_20", "op": "AddV2", "input": ["StatefulPartitionedCall/convolution_3", "unknown_32"], "attr": {"T": {"type": "DT_FLOAT"}}}, {"name": "StatefulPartitionedCall/assert_equal_45/Assert/AssertGuard/branch_executed/_336", "op": "Merge", "input": ["StatefulPartitionedCall/assert_equal_45/Assert/AssertGuard/pivot_t/_331", "StatefulPartitionedCall/assert_equal_45/Assert/AssertGuard/pivot_f/_330", "^ConstantFoldingCtrl/StatefulPartitionedCall/assert_equal_45/Assert/AssertGuard/StatefulPartitionedCall/assert_equal_45/All/_332_0"], "attr": {"N": {"i": "2"}, "T": {"type": "DT_BOOL"}}}, {"name": "StatefulPartitionedCall/assert_equal_45/Assert/AssertGuard/else/_328/assert_equal_45/Assert/AssertGuard/Identity_1", "op": "Const", "input": ["^StatefulPartitionedCall/assert_equal_45/Assert/AssertGuard/pivot_f/_330", "^ConstantFoldingCtrl/StatefulPartitionedCall/assert_equal_45/Assert/AssertGuard/StatefulPartitionedCall/assert_equal_45/All/_332_0"], "attr": {"value": {"tensor": {"dtype": "DT_BOOL", "tensorShape": {}}}, "dtype": {"type": "DT_BOOL"}}}, {"name": "StatefulPartitionedCall/transpose_12", "op": "Transpose", "input": ["StatefulPartitionedCall/Add_20", "StatefulPartitionedCall/transpose_12/perm"], "attr": {"Tperm": {"type": "DT_INT32"}, "T": {"type": "DT_FLOAT"}}}, {"name": "StatefulPartitionedCall/assert_equal_45/Assert/AssertGuard/output/_335", "op": "Merge", "input": ["Func/StatefulPartitionedCall/assert_equal_45/Assert/AssertGuard/then/_327/output/_605", "StatefulPartitionedCall/assert_equal_45/Assert/AssertGuard/else/_328/assert_equal_45/Assert/AssertGuard/Identity_1"], "attr": {"N": {"i": "2"}, "T": {"type": "DT_BOOL"}}}, {"name": "StatefulPartitionedCall/onnx_tf_prefix_Mul_146", "op": "Mul", "input": ["StatefulPartitionedCall/transpose_12", "StatefulPartitionedCall/onnx_tf_prefix_Constant_145"], "attr": {"T": {"type": "DT_FLOAT"}}}, {"name": "StatefulPartitionedCall/onnx_tf_prefix_Concat_424", "op": "Const", "input": ["^StatefulPartitionedCall/assert_equal_41/Assert/AssertGuard/output/_315", "^StatefulPartitionedCall/assert_equal_43/Assert/AssertGuard/output/_325", "^StatefulPartitionedCall/assert_equal_45/Assert/AssertGuard/output/_335"], "attr": {"value": {"tensor": {"dtype": "DT_INT64", "tensorShape": {"dim": [{"size": "6"}]}}}, "dtype": {"type": "DT_INT64"}}}, {"name": "StatefulPartitionedCall/Where_20", "op": "Const", "input": ["^StatefulPartitionedCall/assert_equal_41/Assert/AssertGuard/output/_315", "^StatefulPartitionedCall/assert_equal_43/Assert/AssertGuard/output/_325", "^StatefulPartitionedCall/assert_equal_45/Assert/AssertGuard/output/_335"], "attr": {"value": {"tensor": {"dtype": "DT_INT64", "tensorShape": {"dim": [{}, {"size": "1"}]}}}, "dtype": {"type": "DT_INT64"}}}, {"name": "StatefulPartitionedCall/GatherV2_20", "op": "Const", "input": ["^StatefulPartitionedCall/assert_equal_41/Assert/AssertGuard/output/_315", "^StatefulPartitionedCall/assert_equal_43/Assert/AssertGuard/output/_325", "^StatefulPartitionedCall/assert_equal_45/Assert/AssertGuard/output/_335"], "attr": {"dtype": {"type": "DT_INT64"}, "value": {"tensor": {"dtype": "DT_INT64", "tensorShape": {"dim": [{}]}}}}}, {"name": "StatefulPartitionedCall/ones_6", "op": "Const", "input": ["^StatefulPartitionedCall/assert_equal_41/Assert/AssertGuard/output/_315", "^StatefulPartitionedCall/assert_equal_43/Assert/AssertGuard/output/_325", "^StatefulPartitionedCall/assert_equal_45/Assert/AssertGuard/output/_335"], "attr": {"value": {"tensor": {"dtype": "DT_FLOAT", "tensorShape": {"dim": [{"size": "1"}, {"size": "64"}, {"size": "256"}, {"size": "2"}, {"size": "256"}, {"size": "2"}]}}}, "dtype": {"type": "DT_FLOAT"}}}, {"name": "StatefulPartitionedCall/onnx_tf_prefix_Concat_447", "op": "Const", "input": ["^StatefulPartitionedCall/assert_equal_41/Assert/AssertGuard/output/_315", "^StatefulPartitionedCall/assert_equal_43/Assert/AssertGuard/output/_325", "^StatefulPartitionedCall/assert_equal_45/Assert/AssertGuard/output/_335"], "attr": {"dtype": {"type": "DT_INT64"}, "value": {"tensor": {"dtype": "DT_INT64", "tensorShape": {"dim": [{"size": "4"}]}}}}}, {"name": "StatefulPartitionedCall/Where_22", "op": "Const", "input": ["^StatefulPartitionedCall/assert_equal_41/Assert/AssertGuard/output/_315", "^StatefulPartitionedCall/assert_equal_43/Assert/AssertGuard/output/_325", "^StatefulPartitionedCall/assert_equal_45/Assert/AssertGuard/output/_335"], "attr": {"dtype": {"type": "DT_INT64"}, "value": {"tensor": {"dtype": "DT_INT64", "tensorShape": {"dim": [{}, {"size": "1"}]}}}}}, {"name": "StatefulPartitionedCall/GatherV2_22", "op": "Const", "input": ["^StatefulPartitionedCall/assert_equal_41/Assert/AssertGuard/output/_315", "^StatefulPartitionedCall/assert_equal_43/Assert/AssertGuard/output/_325", "^StatefulPartitionedCall/assert_equal_45/Assert/AssertGuard/output/_335"], "attr": {"value": {"tensor": {"dtype": "DT_INT64", "tensorShape": {"dim": [{}]}}}, "dtype": {"type": "DT_INT64"}}}, {"name": "StatefulPartitionedCall/onnx_tf_prefix_LeakyRelu_147", "op": "LeakyRelu", "input": ["StatefulPartitionedCall/onnx_tf_prefix_Mul_146"], "attr": {"alpha": {"f": 0.2}, "T": {"type": "DT_FLOAT"}}}, {"name": "StatefulPartitionedCall/SparseToDense_20", "op": "SparseToDense", "input": ["StatefulPartitionedCall/Where_20", "StatefulPartitionedCall/Cast_66", "StatefulPartitionedCall/GatherV2_20", "StatefulPartitionedCall/zeros_20"], "attr": {"Tindices": {"type": "DT_INT64"}, "T": {"type": "DT_INT64"}, "validate_indices": {"b": true}}}, {"name": "StatefulPartitionedCall/SparseToDense_22", "op": "SparseToDense", "input": ["StatefulPartitionedCall/Where_22", "StatefulPartitionedCall/Cast_68", "StatefulPartitionedCall/GatherV2_22", "StatefulPartitionedCall/zeros_22"], "attr": {"validate_indices": {"b": true}, "T": {"type": "DT_INT64"}, "Tindices": {"type": "DT_INT64"}}}, {"name": "StatefulPartitionedCall/onnx_tf_prefix_Pow_148", "op": "Square", "input": ["StatefulPartitionedCall/onnx_tf_prefix_LeakyRelu_147"], "attr": {"T": {"type": "DT_FLOAT"}}}, {"name": "StatefulPartitionedCall/add_57", "op": "AddV2", "input": ["StatefulPartitionedCall/onnx_tf_prefix_Concat_424", "StatefulPartitionedCall/SparseToDense_20"], "attr": {"T": {"type": "DT_INT64"}}}, {"name": "StatefulPartitionedCall/add_59", "op": "AddV2", "input": ["StatefulPartitionedCall/onnx_tf_prefix_Concat_447"…
: "StatefulPartitionedCall/transpose_33", "op": "Transpose", "input": ["StatefulPartitionedCall/Add_45", "StatefulPartitionedCall/transpose_33/perm"], "attr": {"T": {"type": "DT_FLOAT"}, "Tperm": {"type": "DT_INT32"}}}, {"name": "StatefulPartitionedCall/onnx_tf_prefix_Mul_341", "op": "Mul", "input": ["StatefulPartitionedCall/transpose_33", "StatefulPartitionedCall/onnx_tf_prefix_Constant_340"], "attr": {"T": {"type": "DT_FLOAT"}}}, {"name": "StatefulPartitionedCall/onnx_tf_prefix_LeakyRelu_342", "op": "LeakyRelu", "input": ["StatefulPartitionedCall/onnx_tf_prefix_Mul_341"], "attr": {"alpha": {"f": 0.2}, "T": {"type": "DT_FLOAT"}}}, {"name": "StatefulPartitionedCall/onnx_tf_prefix_Pow_343", "op": "Square", "input": ["StatefulPartitionedCall/onnx_tf_prefix_LeakyRelu_342"], "attr": {"T": {"type": "DT_FLOAT"}}}, {"name": "StatefulPartitionedCall/onnx_tf_prefix_ReduceMean_344", "op": "Mean", "input": ["StatefulPartitionedCall/onnx_tf_prefix_Pow_343", "StatefulPartitionedCall/onnx_tf_prefix_ReduceMean_344/reduction_indices"], "attr": {"T": {"type": "DT_FLOAT"}, "keep_dims": {"b": true}, "Tidx": {"type": "DT_INT32"}}}, {"name": "StatefulPartitionedCall/onnx_tf_prefix_Add_346", "op": "AddV2", "input": ["StatefulPartitionedCall/onnx_tf_prefix_ReduceMean_344", "StatefulPartitionedCall/onnx_tf_prefix_Constant_345"], "attr": {"T": {"type": "DT_FLOAT"}}}, {"name": "StatefulPartitionedCall/onnx_tf_prefix_Sqrt_347", "op": "Sqrt", "input": ["StatefulPartitionedCall/onnx_tf_prefix_Add_346"], "attr": {"T": {"type": "DT_FLOAT"}}}, {"name": "StatefulPartitionedCall/onnx_tf_prefix_Div_349", "op": "Reciprocal", "input": ["StatefulPartitionedCall/onnx_tf_prefix_Sqrt_347"], "attr": {"T": {"type": "DT_FLOAT"}}}, {"name": "StatefulPartitionedCall/onnx_tf_prefix_Mul_350", "op": "Mul", "input": ["StatefulPartitionedCall/onnx_tf_prefix_LeakyRelu_342", "StatefulPartitionedCall/onnx_tf_prefix_Div_349"], "attr": {"T": {"type": "DT_FLOAT"}}}, {"name": "StatefulPartitionedCall/onnx_tf_prefix_Reshape_364", "op": "Reshape", "input": ["StatefulPartitionedCall/onnx_tf_prefix_Mul_350", "StatefulPartitionedCall/add_49"], "attr": {"T": {"type": "DT_FLOAT"}, "Tshape": {"type": "DT_INT64"}}}, {"name": "StatefulPartitionedCall/mul_7", "op": "Mul", "input": ["StatefulPartitionedCall/onnx_tf_prefix_Reshape_364", "StatefulPartitionedCall/ones_5"], "attr": {"T": {"type": "DT_FLOAT"}}}, {"name": "StatefulPartitionedCall/onnx_tf_prefix_Reshape_387", "op": "Reshape", "input": ["StatefulPartitionedCall/mul_7", "StatefulPartitionedCall/add_51"], "attr": {"T": {"type": "DT_FLOAT"}, "Tshape": {"type": "DT_INT64"}}}, {"name": "StatefulPartitionedCall/Pad_11", "op": "Pad", "input": ["StatefulPartitionedCall/onnx_tf_prefix_Reshape_387", "StatefulPartitionedCall/Const_31"], "attr": {"T": {"type": "DT_FLOAT"}, "Tpaddings": {"type": "DT_INT32"}}}, {"name": "StatefulPartitionedCall/transpose_35", "op": "Transpose", "input": ["StatefulPartitionedCall/Pad_11", "StatefulPartitionedCall/transpose_35/perm"], "attr": {"T": {"type": "DT_FLOAT"}, "Tperm": {"type": "DT_INT32"}}}, {"name": "StatefulPartitionedCall/convolution_11", "op": "Conv2D", "input": ["StatefulPartitionedCall/transpose_35", "StatefulPartitionedCall/split_11"], "device": "/device:CPU:0", "attr": {"T": {"type": "DT_FLOAT"}, "use_cudnn_on_gpu": {"b": true}, "explicit_paddings": {"list": {}}, "strides": {"list": {"i": ["1", "1", "1", "1"]}}, "padding": {"s": "VkFMSUQ="}, "dilations": {"list": {"i": ["1", "1", "1", "1"]}}, "data_format": {"s": "TkhXQw=="}}}, {"name": "StatefulPartitionedCall/Add_52", "op": "AddV2", "input": ["StatefulPartitionedCall/convolution_11", "unknown_84"], "attr": {"T": {"type": "DT_FLOAT"}}}, {"name": "StatefulPartitionedCall/transpose_36", "op": "Transpose", "input": ["StatefulPartitionedCall/Add_52", "StatefulPartitionedCall/transpose_36/perm"], "attr": {"T": {"type": "DT_FLOAT"}, "Tperm": {"type": "DT_INT32"}}}, {"name": "StatefulPartitionedCall/onnx_tf_prefix_Mul_390", "op": "Mul", "input": ["StatefulPartitionedCall/transpose_36", "StatefulPartitionedCall/onnx_tf_prefix_Constant_389"], "attr": {"T": {"type": "DT_FLOAT"}}}, {"name": "StatefulPartitionedCall/onnx_tf_prefix_LeakyRelu_391", "op": "LeakyRelu", "input": ["StatefulPartitionedCall/onnx_tf_prefix_Mul_390"], "attr": {"T": {"type": "DT_FLOAT"}, "alpha": {"f": 0.2}}}, {"name": "StatefulPartitionedCall/onnx_tf_prefix_Pow_392", "op": "Square", "input": ["StatefulPartitionedCall/onnx_tf_prefix_LeakyRelu_391"], "attr": {"T": {"type": "DT_FLOAT"}}}, {"name": "StatefulPartitionedCall/onnx_tf_prefix_ReduceMean_393", "op": "Mean", "input": ["StatefulPartitionedCall/onnx_tf_prefix_Pow_392", "StatefulPartitionedCall/onnx_tf_prefix_ReduceMean_393/reduction_indices"], "attr": {"T": {"type": "DT_FLOAT"}, "Tidx": {"type": "DT_INT32"}, "keep_dims": {"b": true}}}, {"name": "StatefulPartitionedCall/onnx_tf_prefix_Add_395", "op": "AddV2", "input": ["StatefulPartitionedCall/onnx_tf_prefix_ReduceMean_393", "StatefulPartitionedCall/onnx_tf_prefix_Constant_394"], "attr": {"T": {"type": "DT_FLOAT"}}}, {"name": "StatefulPartitionedCall/onnx_tf_prefix_Sqrt_396", "op": "Sqrt", "input": ["StatefulPartitionedCall/onnx_tf_prefix_Add_395"], "attr": {"T": {"type": "DT_FLOAT"}}}, {"name": "StatefulPartitionedCall/onnx_tf_prefix_Div_398", "op": "Reciprocal", "input": ["StatefulPartitionedCall/onnx_tf_prefix_Sqrt_396"], "attr": {"T": {"type": "DT_FLOAT"}}}, {"name": "StatefulPartitionedCall/onnx_tf_prefix_Mul_399", "op": "Mul", "input": ["StatefulPartitionedCall/onnx_tf_prefix_LeakyRelu_391", "StatefulPartitionedCall/onnx_tf_prefix_Div_398"], "attr": {"T": {"type": "DT_FLOAT"}}}, {"name": "StatefulPartitionedCall/Pad_12", "op": "Pad", "input": ["StatefulPartitionedCall/onnx_tf_prefix_Mul_399", "StatefulPartitionedCall/Const_32"], "attr": {"Tpaddings": {"type": "DT_INT32"}, "T": {"type": "DT_FLOAT"}}}, {"name": "StatefulPartitionedCall/transpose_38", "op": "Transpose", "input": ["StatefulPartitionedCall/Pad_12", "StatefulPartitionedCall/transpose_38/perm"], "attr": {"Tperm": {"type": "DT_INT32"}, "T": {"type": "DT_FLOAT"}}}, {"name": "StatefulPartitionedCall/convolution_12", "op": "Conv2D", "input": ["StatefulPartitionedCall/transpose_38", "StatefulPartitionedCall/split_12"], "device": "/device:CPU:0", "attr": {"T": {"type": "DT_FLOAT"}, "strides": {"list": {"i": ["1", "1", "1", "1"]}}, "use_cudnn_on_gpu": {"b": true}, "explicit_paddings": {"list": {}}, "padding": {"s": "VkFMSUQ="}, "data_format": {"s": "TkhXQw=="}, "dilations": {"list": {"i": ["1", "1", "1", "1"]}}}}, {"name": "StatefulPartitionedCall/Add_53", "op": "AddV2", "input": ["StatefulPartitionedCall/convolution_12", "unknown_87"], "attr": {"T": {"type": "DT_FLOAT"}}}, {"name": "StatefulPartitionedCall/transpose_39", "op": "Transpose", "input": ["StatefulPartitionedCall/Add_53", "StatefulPartitionedCall/transpose_39/perm"], "attr": {"Tperm": {"type": "DT_INT32"}, "T": {"type": "DT_FLOAT"}}}, {"name": "StatefulPartitionedCall/onnx_tf_prefix_Mul_402", "op": "Mul", "input": ["StatefulPartitionedCall/transpose_39", "StatefulPartitionedCall/onnx_tf_prefix_Constant_401"], "attr": {"T": {"type": "DT_FLOAT"}}}, {"name": "StatefulPartitionedCall/onnx_tf_prefix_LeakyRelu_403", "op": "LeakyRelu", "input": ["StatefulPartitionedCall/onnx_tf_prefix_Mul_402"], "attr": {"T": {"type": "DT_FLOAT"}, "alpha": {"f": 0.2}}}, {"name": "StatefulPartitionedCall/onnx_tf_prefix_Pow_404", "op": "Square", "input": ["StatefulPartitionedCall/onnx_tf_prefix_LeakyRelu_403"], "attr": {"T": {"type": "DT_FLOAT"}}}, {"name": "StatefulPartitionedCall/onnx_tf_prefix_ReduceMean_405", "op": "Mean", "input": ["StatefulPartitionedCall/onnx_tf_prefix_Pow_404", "StatefulPartitionedCall/onnx_tf_prefix_ReduceMean_405/reduction_indices"], "attr": {"T": {"type": "DT_FLOAT"}, "keep_dims": {"b": true}, "Tidx": {"type": "DT_INT32"}}}, {"name": "StatefulPartitionedCall/onnx_tf_prefix_Add_407", "op": "AddV2", "input": ["StatefulPartitionedCall/onnx_tf_prefix_ReduceMean_405", "StatefulPartitionedCall/onnx_tf_prefix_Constant_406"], "attr": {"T": {"type": "DT_FLOAT"}}}, {"name": "StatefulPartitionedCall/onnx_tf_prefix_Sqrt_408", "op": "Sqrt", "input": ["StatefulPartitionedCall/onnx_tf_prefix_Add_407"], "attr": {"T": {"type": "DT_FLOAT"}}}, {"name": "StatefulPartitionedCall/onnx_tf_prefix_Div_410", "op": "Reciprocal", "input": ["StatefulPartitionedCall/onnx_tf_prefix_Sqrt_408"], "attr": {"T": {"type": "DT_FLOAT"}}}, {"name": "StatefulPartitionedCall/onnx_tf_prefix_Mul_411", "op": "Mul", "input": ["StatefulPartitionedCall/onnx_tf_prefix_LeakyRelu_403", "StatefulPartitionedCall/onnx_tf_prefix_Div_410"], "attr": {"T": {"type": "DT_FLOAT"}}}, {"name": "StatefulPartitionedCall/onnx_tf_prefix_Reshape_425", "op": "Reshape", "input": ["StatefulPartitionedCall/onnx_tf_prefix_Mul_411", "StatefulPartitionedCall/add_57"], "attr": {"Tshape": {"type": "DT_INT64"}, "T": {"type": "DT_FLOAT"}}}, {"name": "StatefulPartitionedCall/mul_8", "op": "Mul", "input": ["StatefulPartitionedCall/onnx_tf_prefix_Reshape_425", "StatefulPartitionedCall/ones_6"], "attr": {"T": {"type": "DT_FLOAT"}}}, {"name": "StatefulPartitionedCall/onnx_tf_prefix_Reshape_448", "op": "Reshape", "input": ["StatefulPartitionedCall/mul_8", "StatefulPartitionedCall/add_59"], "attr": {"Tshape": {"type": "DT_INT64"}, "T": {"type": "DT_FLOAT"}}}, {"name": "StatefulPartitionedCall/Pad_13", "op": "Pad", "input": ["StatefulPartitionedCall/onnx_tf_prefix_Reshape_448", "StatefulPartitionedCall/Const_36"], "attr": {"T": {"type": "DT_FLOAT"}, "Tpaddings": {"type": "DT_INT32"}}}, {"name": "StatefulPartitionedCall/transpose_41", "op": "Transpose", "input": ["StatefulPartitionedCall/Pad_13", "StatefulPartitionedCall/transpose_41/perm"], "attr": {"T": {"type": "DT_FLOAT"}, "Tperm": {"type": "DT_INT32"}}}, {"name": "StatefulPartitionedCall/convolution_13", "op": "Conv2D", "input": ["StatefulPartitionedCall/transpose_41", "StatefulPartitionedCall/split_13"], "device": "/device:CPU:0", "attr": {"padding": {"s": "VkFMSUQ="}, "use_cudnn_on_gpu": {"b": true}, "strides": {"list": {"i": ["1", "1", "1", "1"]}}, "explicit_paddings": {"list": {}}, "T": {"type": "DT_FLOAT"}, "dilations": {"list": {"i": ["1", "1", "1", "1"]}}, "data_format": {"s": "TkhXQw=="}}}, {"name": "StatefulPartitionedCall/Add_60", "op": "AddV2", "input": ["StatefulPartitionedCall/convolution_13", "unknown_97"], "attr": {"T": {"type": "DT_FLOAT"}}}, {"name": "StatefulPartitionedCall/transpose_42", "op": "Transpose", "input": ["StatefulPartitionedCall/Add_60", "StatefulPartitionedCall/transpose_42/perm"], "attr": {"Tperm": {"type": "DT_INT32"}, "T": {"type": "DT_FLOAT"}}}, {"name": "StatefulPartitionedCall/onnx_tf_prefix_Mul_451", "op": "Mul", "input": ["StatefulPartitionedCall/transpose_42", "StatefulPartitionedCall/onnx_tf_prefix_Constant_450"], "attr": {"T": {"type": "DT_FLOAT"}}}, {"name": "StatefulPartitionedCall/onnx_tf_prefix_LeakyRelu_452", "op": "LeakyRelu", "input": ["StatefulPartitionedCall/onnx_tf_prefix_Mul_451"], "attr": {"alpha": {"f": 0.2}, "T": {"type": "DT_FLOAT"}}}, {"name": "StatefulPartitionedCall/onnx_tf_prefix_Pow_453", "op": "Square", "input": ["StatefulPartitionedCall/onnx_tf_prefix_LeakyRelu_452"], "attr": {"T": {"type": "DT_FLOAT"}}}, {"name": "StatefulPartitionedCall/onnx_tf_prefix_ReduceMean_454", "op": "Mean", "input": ["StatefulPartitionedCall/onnx_tf_prefix_Pow_453", "StatefulPartitionedCall/onnx_tf_prefix_ReduceMean_454/reduction_indices"], "attr": {"T": {"type": "DT_FLOAT"}, "keep_dims": {"b": true}, "Tidx": {"type": "DT_INT32"}}}, {"name": "StatefulPartitionedCall/onnx_tf_prefix_Add_456", "op": "AddV2", "input": ["StatefulPartitionedCall/onnx_tf_prefix_ReduceMean_454", "StatefulPartitionedCall/onnx_tf_prefix_Constant_455"], "attr": {"T": {"type": "DT_FLOAT"}}}, {"name": "StatefulPartitionedCall/onnx_tf_prefix_Sqrt_457", "op": "Sqrt", "input": ["StatefulPartitionedCall/onnx_tf_prefix_Add_456"], "attr": {"T": {"type": "DT_FLOAT"}}}, {"name": "StatefulPartitionedCall/onnx_tf_prefix_Div_459", "op": "Reciprocal", "input": ["StatefulPartitionedCall/onnx_tf_prefix_Sqrt_457"], "attr": {"T": {"type": "DT_FLOAT"}}}, {"name": "StatefulPartitionedCall/onnx_tf_prefix_Mul_460", "op": "Mul", "input": ["StatefulPartitionedCall/onnx_tf_prefix_LeakyRelu_452", "StatefulPartitionedCall/onnx_tf_prefix_Div_459"], "attr": {"T": {"type": "DT_FLOAT"}}}, {"name": "StatefulPartitionedCall/Pad_14", "op": "Pad", "input": ["StatefulPartitionedCall/onnx_tf_prefix_Mul_460", "StatefulPartitionedCall/Const_37"], "attr": {"Tpaddings": {"type": "DT_INT32"}, "T": {"type": "DT_FLOAT"}}}, {"name": "StatefulPartitionedCall/transpose_44", "op": "Transpose", "input": ["StatefulPartitionedCall/Pad_14", "StatefulPartitionedCall/transpose_44/perm"], "attr": {"T": {"type": "DT_FLOAT"}, "Tperm": {"type": "DT_INT32"}}}, {"name": "StatefulPartitionedCall/convolution_14", "op": "Conv2D", "input": ["StatefulPartitionedCall/transpose_44", "StatefulPartitionedCall/split_14"], "device": "/device:CPU:0", "attr": {"strides": {"list": {"i": ["1", "1", "1", "1"]}}, "explicit_paddings": {"list": {}}, "padding": {"s": "VkFMSUQ="}, "dilations": {"list": {"i": ["1", "1", "1", "1"]}}, "data_format": {"s": "TkhXQw=="}, "T": {"type": "DT_FLOAT"}, "use_cudnn_on_gpu": {"b": true}}}, {"name": "StatefulPartitionedCall/Add_61", "op": "AddV2", "input": ["StatefulPartitionedCall/convolution_14", "unknown_100"], "attr": {"T": {"type": "DT_FLOAT"}}}, {"name": "StatefulPartitionedCall/transpose_45", "op": "Transpose", "input": ["StatefulPartitionedCall/Add_61", "StatefulPartitionedCall/transpose_45/perm"], "attr": {"Tperm": {"type": "DT_INT32"}, "T": {"type": "DT_FLOAT"}}}, {"name": "StatefulPartitionedCall/onnx_tf_prefix_Mul_463", "op": "Mul", "input": ["StatefulPartitionedCall/transpose_45", "StatefulPartitionedCall/onnx_tf_prefix_Constant_462"], "attr": {"T": {"type": "DT_FLOAT"}}}, {"name": "StatefulPartitionedCall/onnx_tf_prefix_LeakyRelu_464", "op": "LeakyRelu", "input": ["StatefulPartitionedCall/onnx_tf_prefix_Mul_463"], "attr": {"alpha": {"f": 0.2}, "T": {"type": "DT_FLOAT"}}}, {"name": "StatefulPartitionedCall/onnx_tf_prefix_Pow_465", "op": "Square", "input": ["StatefulPartitionedCall/onnx_tf_prefix_LeakyRelu_464"], "attr": {"T": {"type": "DT_FLOAT"}}}, {"name": "StatefulPartitionedCall/onnx_tf_prefix_ReduceMean_466", "op": "Mean", "input": ["StatefulPartitionedCall/onnx_tf_prefix_Pow_465", "StatefulPartitionedCall/onnx_tf_prefix_ReduceMean_466/reduction_indices"], "attr": {"keep_dims": {"b": true}, "T": {"type": "DT_FLOAT"}, "Tidx": {"type": "DT_INT32"}}}, {"name": "StatefulPartitionedCall/onnx_tf_prefix_Add_468", "op": "AddV2", "input": ["StatefulPartitionedCall/onnx_tf_prefix_ReduceMean_466", "StatefulPartitionedCall/onnx_tf_prefix_Constant_467"], "attr": {"T": {"type": "DT_FLOAT"}}}, {"name": "StatefulPartitionedCall/onnx_tf_prefix_Sqrt_469", "op": "Sqrt", "input": ["StatefulPartitionedCall/onnx_tf_prefix_Add_468"], "attr": {"T": {"type": "DT_FLOAT"}}}, {"name": "StatefulPartitionedCall/onnx_tf_prefix_Div_471", "op": "Reciprocal", "input": ["StatefulPartitionedCall/onnx_tf_prefix_Sqrt_469"], "attr": {"T": {"type": "DT_FLOAT"}}}, {"name": "StatefulPartitionedCall/onnx_tf_prefix_Mul_472", "op": "Mul", "input": ["StatefulPartitionedCall/onnx_tf_prefix_LeakyRelu_464", "StatefulPartitionedCall/onnx_tf_prefix_Div_471"], "attr": {"T": {"type": "DT_FLOAT"}}}, {"name": "StatefulPartitionedCall/transpose_47", "op": "Transpose", "input": ["StatefulPartitionedCall/onnx_tf_prefix_Mul_472", "StatefulPartitionedCall/transpose_47/perm"], "attr": {"Tperm": {"type": "DT_INT32"}, "T": {"type": "DT_FLOAT"}}}, {"name": "StatefulPartitionedCall/convolution_15", "op": "Conv2D", "input": ["StatefulPartitionedCall/transpose_47", "StatefulPartitionedCall/split_15"], "device": "/device:CPU:0", "attr": {"strides": {"list": {"i": ["1", "1", "1", "1"]}}, "data_format": {"s": "TkhXQw=="}, "padding": {"s": "VkFMSUQ="}, "T": {"type": "DT_FLOAT"}, "dilations": {"list": {"i": ["1", "1", "1", "1"]}}, "use_cudnn_on_gpu": {"b": true}, "explicit_paddings": {"list": {}}}}, {"name": "StatefulPartitionedCall/Add_62", "op": "AddV2", "input": ["StatefulPartitionedCall/convolution_15", "unknown_103"], "attr": {"T": {"type": "DT_FLOAT"}}}, {"name": "StatefulPartitionedCall/transpose_48", "op": "Transpose", "input": ["StatefulPartitionedCall/Add_62", "StatefulPartitionedCall/transpose_48/perm"], "attr": {"Tperm": {"type": "DT_INT32"}, "T": {"type": "DT_FLOAT"}}}, {"name": "StatefulPartitionedCall/onnx_tf_prefix_Mul_475", "op": "Mul", "input": ["StatefulPartitionedCall/transpose_48", "StatefulPartitionedCall/onnx_tf_prefix_Constant_474"], "attr": {"T": {"type": "DT_FLOAT"}}}, {"name": "Identity", "op": "Identity", "input": ["StatefulPartitionedCall/onnx_tf_prefix_Mul_475", "^StatefulPartitionedCall/assert_equal_9/Assert/AssertGuard/branch_executed/_156", "^StatefulPartitionedCall/assert_equal_7/Assert/AssertGuard/branch_executed/_146", "^StatefulPartitionedCall/assert_equal_1/Assert/AssertGuard/branch_executed/_116", "^StatefulPartitionedCall/assert_equal_11/Assert/AssertGuard/branch_executed/_166", "^StatefulPartitionedCall/assert_equal_13/Assert/AssertGuard/branch_executed/_176", "^StatefulPartitionedCall/assert_equal_15/Assert/AssertGuard/branch_executed/_186", "^StatefulPartitionedCall/assert_equal_17/Assert/AssertGuard/branch_executed/_196", "^StatefulPartitionedCall/assert_equal_19/Assert/AssertGuard/branch_executed/_206", "^StatefulPartitionedCall/assert_equal_21/Assert/AssertGuard/branch_executed/_216", "^StatefulPartitionedCall/assert_equal_23/Assert/AssertGuard/branch_executed/_226", "^StatefulPartitionedCall/assert_equal_25/Assert/AssertGuard/branch_executed/_236", "^StatefulPartitionedCall/assert_equal_27/Assert/AssertGuard/branch_executed/_246", "^StatefulPartitionedCall/assert_equal_29/Assert/AssertGuard/branch_executed/_256", "^StatefulPartitionedCall/assert_equal_3/Assert/AssertGuard/branch_executed/_126", "^StatefulPartitionedCall/assert_equal_31/Assert/AssertGuard/branch_executed/_266", "^StatefulPartitionedCall/assert_equal_33/Assert/AssertGuard/branch_executed/_276", "^StatefulPartitionedCall/assert_equal_35/Assert/AssertGuard/branch_executed/_286", "^StatefulPartitionedCall/assert_equal_37/Assert/AssertGuard/branch_executed/_296", "^StatefulPartitionedCall/assert_equal_39/Assert/AssertGuard/branch_executed/_306", "^StatefulPartitionedCall/assert_equal_41/Assert/AssertGuard/branch_executed/_316", "^StatefulPartitionedCall/assert_equal_43/Assert/AssertGuard/branch_executed/_326", "^StatefulPartitionedCall/assert_equal_45/Assert/AssertGuard/branch_executed/_336", "^StatefulPartitionedCall/assert_equal_5/Assert/AssertGuard/branch_executed/_136"], "attr": {"T": {"type": "DT_FLOAT"}}}], "library": {}, "versions": {"producer": 808}}, "weightsManifest": [{"paths": ["group1-shard1of53.bin", "group1-shard2of53.bin", "group1-shard3of53.bin", "group1-shard4of53.bin", "group1-shard5of53.bin", "group1-shard6of53.bin", "group1-shard7of53.bin", "group1-shard8of53.bin", "group1-shard9of53.bin", "group1-shard10of53.bin", "group1-shard11of53.bin", "group1-shard12of53.bin", "group1-shard13of53.bin", "group1-shard14of53.bin", "group1-shard15of53.bin", "group1-shard16of53.bin", "group1-shard17of53.bin", "group1-shard18of53.bin", "group1-shard19of53.bin", "group1-shard20of53.bin", "group1-shard21of53.bin", "group1-shard22of53.bin", "group1-shard23of53.bin", "group1-shard24of53.bin", "group1-shard25of53.bin", "group1-shard26of53.bin", "group1-shard27of53.bin", "group1-shard28of53.bin", "group1-shard29of53.bin", "group1-shard30of53.bin", "group1-shard31of53.bin", "group1-shard32of53.bin", "group1-shard33of53.bin", "group1-shard34of53.bin", "group1-shard35of53.bin", "group1-shard36of53.bin", "group1-shard37of53.bin", "group1-shard38of53.bin", "group1-shard39of53.bin", "group1-shard40of53.bin", "group1-shard41of53.bin", "group1-shard42of53.bin", "group1-shard43of53.bin", "group1-shard44of53.bin", "group1-shard45of53.bin", "group1-shard46of53.bin", "group1-shard47of53.bin", "group1-shard48of53.bin", "group1-shard49of53.bin", "group1-shard50of53.bin", "group1-shard51of53.bin", "group1-shard52of53.bin", "group1-shard53of53.bin"], "weights": [{"name": "StatefulPartitionedCall/onnx_tf_prefix_Constant_5", "shape": [], "dtype": "float32"}, {"name": "StatefulPartitionedCall/onnx_tf_prefix_ReduceMean_1/reduction_indices", "shape": [], "dtype": "int32"}, {"name": "StatefulPartitionedCall/onnx_tf_prefix_Constant_2", "shape": [], "dtype": "float32"}, {"name": "StatefulPartitionedCall/flatten/Const", "shape": [2], "dtype": "int32"}, {"name": "StatefulPartitionedCall/transpose", "shape": [512, 8192], "dtype": "float32"}, {"name": "StatefulPartitionedCall/mul_1", "shape": [8192], "dtype": "float32"}, {"name": "StatefulPartitionedCall/onnx_tf_prefix_Constant_17", "shape": [], "dtype": "float32"}, {"name": "StatefulPartitionedCall/Cast_5", "shape": [1], "dtype": "int32"}, {"name": "StatefulPartitionedCall/zeros_1", "shape": [], "dtype": "int32"}, {"name": "StatefulPartitionedCall/onnx_tf_prefix_ReduceMean_27/reduction_indices", "shape": [], "dtype": "int32"}, {"name": "StatefulPartitionedCall/onnx_tf_prefix_Constant_28", "shape": [], "dtype": "float32"}, {"name": "StatefulPartitionedCall/Const_2", "shape": [4, 2], "dtype": "int32"}, {"name": "StatefulPartitionedCall/transpose_2/perm", "shape": [4], "dtype": "int32"}, {"name": "StatefulPartitionedCall/split", "shape": [3, 3, 512, 512], "dtype": "float32"}, {"name": "unknown_9", "shape": [512], "dtype": "float32"}, {"name": "StatefulPartitionedCall/transpose_3/perm", "shape": [4], "dtype": "int32"}, {"name": "StatefulPartitionedCall/onnx_tf_prefix_Constant_35", "shape": [], "dtype": "float32"}, {"name": "StatefulPartitionedCall/onnx_tf_prefix_ReduceMean_39/reduction_indices", "shape": [], "dtype": "int32"}, {"name": "StatefulPartitionedCall/onnx_tf_prefix_Constant_40", "shape": [], "dtype": "float32"}, {"name": "StatefulPartitionedCall/Cast_12", "shape": [1], "dtype": "int32"}, {"name": "StatefulPartitionedCall/zeros_2", "shape": [], "dtype": "int32"}, {"name": "StatefulPartitionedCall/Cast_14", "shape": [1], "dtype": "int32"}, {"name": "StatefulPartitionedCall/zeros_4", "shape": [], "dtype": "int32"}, {"name": "StatefulPartitionedCall/Const_6", "shape": [4, 2], "dtype": "int32"}, {"name": "StatefulPartitionedCall/transpose_5/perm", "shape": [4], "dtype": "int32"}, {"name": "StatefulPartitionedCall/split_1", "shape": [3, 3, 512, 512], "dtype": "float32"}, {"name": "unknown_19", "shape": [512], "dtype": "float32"}, {"name": "StatefulPartitionedCall/transpose_6/perm", "shape": [4], "dtype": "int32"}, {"name": "StatefulPartitionedCall/onnx_tf_prefix_Constant_84", "shape": [], "dtype": "float32"}, {"name": "StatefulPartitionedCall/onnx_tf_prefix_ReduceMean_88/reduction_indices", "shape": [], "dtype": "int32"}, {"name": "StatefulPartitionedCall/onnx_tf_prefix_Constant_89", "shape": [], "dtype": "float32"}, {"name": "StatefulPartitionedCall/Const_7", "shape": [4, 2], "dtype": "int32"}, {"name": "StatefulPartitionedCall/transpose_8/perm", "shape": [4], "dtype": "int32"}, {"name": "StatefulPartitionedCall/split_2", "shape": [3, 3, 512, 512], "dtype": "float32"}, {"name": "unknown_22", "shape": [512], "dtype": "float32"}, {"name": "StatefulPartitionedCall/transpose_9/perm", "shape": [4], "dtype": "int32"}, {"name": "StatefulPartitionedCall/onnx_tf_prefix_Constant_96", "shape": [], "dtype": "float32"}, {"name": "StatefulPartitionedCall/onnx_tf_prefix_ReduceMean_100/reduction_indices", "shape": [], "dtype": "int32"}, {"name": "StatefulPartitionedCall/onnx_tf_prefix_Constant_101", "shape": [], "dtype": "float32"}, {"name": "StatefulPartitionedCall/Cast_21", "shape": [1], "dtype": "int32"}, {"name": "StatefulPartitionedCall/zeros_5", "shape": [], "dtype": "int32"}, {"name": "StatefulPartitionedCall/Cast_23", "shape": [1], "dtype": "int32"}, {"name": "StatefulPartitionedCall/zeros_7", "shape": [], "dtype": "int32"}, {"name": "StatefulPartitionedCall/Const_11", "shape": [4, 2], "dtype": "int32"}, {"name": "StatefulPartitionedCall/transpose_11/perm", "shape": [4], "dtype": "int32"}, {"name": "StatefulPartitionedCall/split_3", "shape": [3, 3, 512, 512], "dtype": "float32"}, {"name": "unknown_32", "shape": [512], "dtype": "float32"}, {"name": "StatefulPartitionedCall/transpose_12/perm", "shape": [4], "dtype": "int32"}, {"name": "StatefulPartitionedCall/onnx_tf_prefix_Constant_145", "shape": [], "dtype": "float32"}, {"name": "StatefulPartitionedCall/onnx_tf_prefix_ReduceMean_149/reduction_indices", "shape": [], "dtype": "int32"}, {"name": "StatefulPartitionedCall/onnx_tf_prefix_Constant_150", "shape": [], "dtype": "float32"}, {"name": "StatefulPartitionedCall/Const_12", "shape": [4, 2], "dtype": "int32"}, {"name": "StatefulPartitionedCall/transpose_14/perm", "shape": [4], "dtype": "int32"}, {"name": "StatefulPartitionedCall/split_4", "shape": [3, 3, 512, 512], "dtype": "float32"}, {"name": "unknown_35", "shape": [512], "dtype": "float32"}, {"name": "StatefulPartitionedCall/transpose_15/perm", "shape": [4], "dtype": "int32"}, {"name": "StatefulPartitionedCall/onnx_tf_prefix_Constant_157", "shape": [], "dtype": "float32"}, {"name": "StatefulPartitionedCall/onnx_tf_prefix_ReduceMean_161/reduction_indices", "shape": [], "dtype": "int32"}, {"name": "StatefulPartitionedCall/onnx_tf_prefix_Constant_162", "shape": [], "dtype": "float32"}, {"name": "StatefulPartitionedCall/Cast_30", "shape": [1], "dtype": "int32"}, {"name": "StatefulPartitionedCall/zeros_8", "shape": [], "dtype": "int32"}, {"name": "StatefulPartitionedCall/Cast_32", "shape": [1], "dtype": "int32"}, {"name": "StatefulPartitionedCall/zeros_10", "shape": [], "dtype": "int32"}, {"name": "StatefulPartitionedCall/Const_16", "shape": [4, 2], "dtype": "int32"}, {"name": "StatefulPartitionedCall/transpose_17/perm", "shape": [4], "dtype": "int32"}, {"name": "StatefulPartitionedCall/split_5", "shape": [3, 3, 512, 512], "dtype": "float32"}, {"name": "unknown_45", "shape": [512], "dtype": "float32"}, {"name": "StatefulPartitionedCall/transpose_18/perm", "shape": [4], "dtype": "int32"}, {"name": "StatefulPartitionedCall/onnx_tf_prefix_Constant_206", "shape": [], "dtype": "float32"}, {"name": "StatefulPartitionedCall/onnx_tf_prefix_ReduceMean_210/reduction_indices", "shape": [], "dtype": "int32"}, {"name": "StatefulPartitionedCall/onnx_tf_prefix_Constant_211", "shape": [], "dtype": "float32"}, {"name": "StatefulPartitionedCall/Const_17", "shape": [4, 2], "dtype": "int32"}, {"name": "StatefulPartitionedCall/transpose_20/perm", "shape": [4], "dtype": "int32"}, {"name": "StatefulPartitionedCall/split_6", "shape": [3, 3, 512, 512], "dtype": "float32"}, {"name": "unknown_48", "shape": [512], "dtype": "float32"}, {"name": "StatefulPartitionedCall/transpose_21/perm", "shape": [4], "dtype": "int32"}, {"name": "StatefulPartitionedCall/onnx_tf_prefix_Constant_218", "shape": [], "dtype": "float32"}, {"name": "StatefulPartitionedCall/onnx_tf_prefix_ReduceMean_222/reduction_indices", "shape": [], "dtype": "int32"}, {"name": "StatefulPartitionedCall/onnx_tf_prefix_Constant_223", "shape": [], "dtype": "float32"}, {"name": "StatefulPartitionedCall/Cast_39", "shape": [1], "dtype": "int32"}, {"name": "StatefulPartitionedCall/zeros_11", "shape": [], "dtype": "int32"}, {"name": "StatefulPartitionedCall/Cast_41", "shape": [1], "dtype": "int32"}, {"name": "StatefulPartitionedCall/zeros_13", "shape": [], "dtype": "int32"}, {"name": "StatefulPartitionedCall/Const_21", "shape": [4, 2], "dtype": "int32"}, {"name": "StatefulPartitionedCall/transpose_23/perm", "shape": [4], "dtype": "int32"}, {"name": "StatefulPartitionedCall/split_7", "shape": [3, 3, 512, 256], "dtype": "float32"}, {"name": "unknown_58", "shape": [256], "dtype": "float32"}, {"name": "StatefulPartitionedCall/transpose_24/perm", "shape": [4], "dtype": "int32"}, {"name": "StatefulPartitionedCall/onnx_tf_prefix_Constant_267", "shape": [], "dtype": "float32"}, {"name": "StatefulPartitionedCall/onnx_tf_prefix_ReduceMean_271/reduction_indices", "shape": [], "dtype": "int32"}, {"name": "StatefulPartitionedCall/onnx_tf_prefix_Constant_272", "shape": [], "dtype": "float32"}, {"name": "StatefulPartitionedCall/Const_22", "shape": [4, 2], "dtype": "int32"}, {"name": "StatefulPartitionedCall/transpose_26/perm", "shape": [4], "dtype": "int32"}, {"name": "StatefulPartitionedCall/split_8", "shape": [3, 3, 256, 256], "dtype": "float32"}, {"name": "unknown_61", "shape": [256], "dtype": "float32"}, {"name": "StatefulPartitionedCall/transpose_27/perm", "shape": [4], "dtype": "int32"}, {"name": "StatefulPartitionedCall/onnx_tf_prefix_Constant_279", "shape": [], "dtype": "float32"}, {"name": "StatefulPartitionedCall/onnx_tf_prefix_ReduceMean_283/reduction_indices", "shape": [], "dtype": "int32"}, {"name": "StatefulPartitionedCall/onnx_tf_prefix_Constant_284", "shape": [], "dtype": "float32"}, {"name": "StatefulPartitionedCall/Cast_48", "shape": [1], "dtype": "int32"}, {"name": "StatefulPartitionedCall/zeros_14", "shape": [], "dtype": "int32"}, {"name": "StatefulPartitionedCall/Cast_50", "shape": [1], "dtype": "int32"}, {"name": "StatefulPartitionedCall/zeros_16", "shape": [], "dtype": "int32"}, {"name": "StatefulPartitionedCall/Const_26", "shape": [4, 2], "dtype": "int32"}, {"name": "StatefulPartitionedCall/transpose_29/perm", "shape": [4], "dtype": "int32"}, {"name": "StatefulPartitionedCall/split_9", "shape": [3, 3, 256, 128], "dtype": "float32"}, {"name": "unknown_71", "shape": [128], "dtype": "float32"}, {"name": "StatefulPartitionedCall/transpose_30/perm", "shape": [4], "dtype": "int32"}, {"name": "StatefulPartitionedCall/onnx_tf_prefix_Constant_328", "shape": [], "dtype": "float32"}, {"name": "StatefulPartitionedCall/onnx_tf_prefix_ReduceMean_332/reduction_indices", "shape": [], "dtype": "int32"}, {"name": "StatefulPartitionedCall/onnx_tf_prefix_Constant_333", "shape": [], "dtype": "float32"}, {"name": "StatefulPartitionedCall/Const_27", "shape": [4, 2], "dtype": "int32"}, {"name": "StatefulPartitionedCall/transpose_32/perm", "shape": [4], "dtype": "int32"}, {"name": "StatefulPartitionedCall/split_10", "shape": [3, 3, 128, 128], "dtype": "float32"}, {"name": "unknown_74", "shape": [128], "dtype": "float32"}, {"name": "StatefulPartitionedCall/transpose_33/perm", "shape": [4], "dtype": "int32"}, {"name": "StatefulPartitionedCall/onnx_tf_prefix_Constant_340", "shape": [], "dtype": "float32"}, {"name": "StatefulPartitionedCall/onnx_tf_prefix_ReduceMean_344/reduction_indices", "shape": [], "dtype": "int32"}, {"name": "StatefulPartitionedCall/onnx_tf_prefix_Constant_345", "shape": [], "dtype": "float32"}, {"name": "StatefulPartitionedCall/Cast_57", "shape": [1], "dtype": "int32"}, {"name": "StatefulPartitionedCall/zeros_17", "shape": [], "dtype": "int32"}, {"name": "StatefulPartitionedCall/Cast_59", "shape": [1], "dtype": "int32"}, {"name": "StatefulPartitionedCall/zeros_19", "shape": [], "dtype": "int32"}, {"name": "StatefulPartitionedCall/Const_31", "shape": [4, 2], "dtype": "int32"}, {"name": "StatefulPartitionedCall/transpose_35/perm", "shape": [4], "dtype": "int32"}, {"name": "StatefulPartitionedCall/split_11", "shape": [3, 3, 128, 64], "dtype": "float32"}, {"name": "unknown_84", "shape": [64], "dtype": "float32"}, {"name": "StatefulPartitionedCall/transpose_36/perm", "shape": [4], "dtype": "int32"}, {"name": "StatefulPartitionedCall/onnx_tf_prefix_Constant_389", "shape": [], "dtype": "float32"}, {"name": "StatefulPartitionedCall/onnx_tf_prefix_ReduceMean_393/reduction_indices", "shape": [], "dtype": "int32"}, {"name": "StatefulPartitionedCall/onnx_tf_prefix_Constant_394", "shape": [], "dtype": "float32"}, {"name": "StatefulPartitionedCall/Const_32", "shape": [4, 2], "dtype": "int32"}, {"name": "StatefulPartitionedCall/transpose_38/perm", "shape": [4], "dtype": "int32"}, {"name": "StatefulPartitionedCall/split_12", "shape": [3, 3, 64, 64], "dtype": "float32"}, {"name": "unknown_87", "shape": [64], "dtype": "float32"}, {"name": "StatefulPartitionedCall/transpose_39/perm", "shape": [4], "dtype": "int32"}, {"name": "StatefulPartitionedCall/onnx_tf_prefix_Constant_401", "shape": [], "dtype": "float32"}, {"name": "StatefulPartitionedCall/onnx_tf_prefix_ReduceMean_405/reduction_indices", "shape": [], "dtype": "int32"}, {"name": "StatefulPartitionedCall/onnx_tf_prefix_Constant_406", "shape": [], "dtype": "float32"}, {"name": "StatefulPartitionedCall/Cast_66", "shape": [1], "dtype": "int32"}, {"name": "StatefulPartitionedCall/zeros_20", "shape": [], "dtype": "int32"}, {"name": "StatefulPartitionedCall/Cast_68", "shape": [1], "dtype": "int32"}, {"name": "StatefulPartitionedCall/zeros_22", "shape": [], "dtype": "int32"}, {"name": "StatefulPartitionedCall/Const_36", "shape": [4, 2], "dtype": "int32"}, {"name": "StatefulPartitionedCall/transpose_41/perm", "shape": [4], "dtype": "int32"}, {"name": "StatefulPartitionedCall/split_13", "shape": [3, 3, 64, 32], "dtype": "float32"}, {"name": "unknown_97", "shape": [32], "dtype": "float32"}, {"name": "StatefulPartitionedCall/transpose_42/perm", "shape": [4], "dtype": "int32"}, {"name": "StatefulPartitionedCall/onnx_tf_prefix_Constant_450", "shape": [], "dtype": "float32"}, {"name": "StatefulPartitionedCall/onnx_tf_prefix_ReduceMean_454/reduction_indices", "shape": [], "dtype": "int32"}, {"name": "StatefulPartitionedCall/onnx_tf_prefix_Constant_455", "shape": [], "dtype": "float32"}, {"name": "StatefulPartitionedCall/Const_37", "shape": [4, 2], "dtype": "int32"}, {"name": "StatefulPartitionedCall/transpose_44/perm", "shape": [4], "dtype": "int32"}, {"name": "StatefulPartitionedCall/split_14", "shape": [3, 3, 32, 32], "dtype": "float32"}, {"name": "unknown_100", "shape": [32], "dtype": "float32"}, {"name": "StatefulPartitionedCall/transpose_45/perm", "shape": [4], "dtype": "int32"}, {"name": "StatefulPartitionedCall/onnx_tf_prefix_Constant_462", "shape": [], "dtype": "float32"}, {"name": "StatefulPartitionedCall/onnx_tf_prefix_ReduceMean_466/reduction_indices", "shape": [], "dtype": "int32"}, {"name": "StatefulPartitionedCall/onnx_tf_prefix_Constant_467", "shape": [], "dtype": "float32"}, {"name": "StatefulPartitionedCall/transpose_47/perm", "shape": [4], "dtype": "int32"}, {"name": "StatefulPartitionedCall/split_15", "shape": [1, 1, 32, 3], "dtype": "float32"}, {"name": "unknown_103", "shape": [3], "dtype": "float32"}, {"name": "StatefulPartitionedCall/transpose_48/perm", "shape": [4], "dtype": "int32"}, {"name": "StatefulPartitionedCall/onnx_tf_prefix_Constant_474", "shape": [], "dtype": "float32"}, {"name": "StatefulPartitionedCall/assert_equal_7/All", "shape": [], "dtype": "bool"}, {"name": "StatefulPartitionedCall/assert_equal_9/All", "shape": [], "dtype": "bool"}, {"name": "StatefulPartitionedCall/assert_equal_11/All", "shape": [], "dtype": "bool"}, {"name": "StatefulPartitionedCall/assert_equal_13/All", "shape": [], "dtype": "bool"}, {"name": "StatefulPartitionedCall/assert_equal_15/All", "shape": [], "dtype": "bool"}, {"name": "StatefulPartitionedCall/assert_equal_17/All", "shape": [], "dtype": "bool"}, {"name": "StatefulPartitionedCall/assert_equal_19/All", "shape": [], "dtype": "bool"}, {"name": "StatefulPartitionedCall/assert_equal_21/All", "shape": [], "dtype": "bool"}, {"name": "StatefulPartitionedCall/assert_equal_23/All", "shape": [], "dtype": "bool"}, {"name": "StatefulPartitionedCall/assert_equal_25/All", "shape": [], "dtype": "bool"}, {"name": "StatefulPartitionedCall/assert_equal_27/All", "shape": [], "dtype": "bool"}, {"name": "StatefulPartitionedCall/assert_equal_29/All", "shape": [], "dtype": "bool"}, {"name": "StatefulPartitionedCall/assert_equal_31/All", "shape": [], "dtype": "bool"}, {"name": "StatefulPartitionedCall/assert_equal_33/All", "shape": [], "dtype": "bool"}, {"name": "StatefulPartitionedCall/assert_equal_35/All", "shape": [], "dtype": "bool"}, {"name": "StatefulPartitionedCall/assert_equal_37/All", "shape": [], "dtype": "bool"}, {"name": "StatefulPartitionedCall/assert_equal_39/All", "shape": [], "dtype": "bool"}, {"name": "StatefulPartitionedCall/assert_equal_41/All", "shape": [], "dtype": "bool"}, {"name": "StatefulPartitionedCall/assert_equal_43/All", "shape": [], "dtype": "bool"}, {"name": "StatefulPartitionedCall/assert_equal_45/All", "shape": [], "dtype": "bool"}, {"name": "StatefulPartitionedCall/assert_equal_1/Assert/AssertGuard/pivot_t/_111", "shape": [], "dtype": "bool"}, {"name": "StatefulPartitionedCall/assert_equal_1/All", "shape": [], "dtype": "bool"}, {"name": "StatefulPartitionedCall/assert_equal_3/All", "shape": [], "dtype": "bool"}, {"name": "StatefulPartitionedCall/assert_equal_5/All", "shape": [], "dtype": "bool"}, {"name": "StatefulPartitionedCall/assert_equal_3/Assert/AssertGuard/pivot_t/_121", "shape": [], "dtype": "bool"}, {"name": "Func/StatefulPartitionedCall/assert_equal_3/Assert/AssertGuard/then/_117/output/_353", "shape": [], "dtype": "bool"}, {"name": "StatefulPartitionedCall/assert_equal_3/Assert/AssertGuard/else/_118/assert_equal_3/Assert/AssertGuard/Identity_1", "shape": [], "dtype": "bool"}, {"name": "StatefulPartitionedCall/assert_equal_5/Assert/AssertGuard/pivot_t/_131", "shape": [], "dtype": "bool"}, {"name": "Func/StatefulPartitionedCall/assert_equal_5/Assert/AssertGuard/then/_127/output/_365", "shape": [], "dtype": "bool"}, {"name": "StatefulPartitionedCall/onnx_tf_prefix_Concat_24", "shape": [4], "dtype": "int32"}, {"name": "StatefulPartitionedCall/Where_1", "shape": [0, 1], "dtype": "int32"}, {"name": "StatefulPartitionedCall/GatherV2_1", "shape": [0], "dtype": "int32"}, {"name": "StatefulPartitionedCall/assert_equal_5/Assert/AssertGuard/else/_128/assert_equal_5/Assert/AssertGuard/Identity_1", "shape": [], "dtype": "bool"}, {"name": "StatefulPartitionedCall/assert_equal_7/Assert/AssertGuard/pivot_t/_141", "shape": [], "dtype": "bool"}, {"name": "Func/StatefulPartitionedCall/assert_equal_7/Assert/AssertGuard/then/_137/output/_377", "shape": [], "dtype": "bool"}, {"name": "StatefulPartitionedCall/assert_equal_7/Assert/AssertGuard/else/_138/assert_equal_7/Assert/AssertGuard/Identity_1", "shape": [], "dtype": "bool"}, {"name": "StatefulPartitionedCall/assert_equal_9/Assert/AssertGuard/pivot_t/_151", "shape": [], "dtype": "bool"}, {"name": "Func/StatefulPartitionedCall/assert_equal_9/Assert/AssertGuard/then/_147/output/_389", "shape": [], "dtype": "bool"}, {"name": "StatefulPartitionedCall/assert_equal_9/Assert/AssertGuard/else/_148/assert_equal_9/Assert/AssertGuard/Identity_1", "shape": [], "dtype": "bool"}, {"name": "StatefulPartitionedCall/assert_equal_11/Assert/AssertGuard/pivot_t/_161", "shape": [], "dtype": "bool"}, {"name": "Func/StatefulPartitionedCall/assert_equal_11/Assert/AssertGuard/then/_157/output/_401", "shape": [], "dtype": "bool"}, {"name": "StatefulPartitionedCall/onnx_tf_prefix_Concat_58", "shape": [6], "dtype": "int32"}, {"name": "StatefulPartitionedCall/Where_2", "shape": [0, 1], "dtype": "int32"}, {"name": "StatefulPartitionedCall/GatherV2_2", "shape": [0], "dtype": "int32"}, {"name": "StatefulPartitionedCall/ones", "shape": [1, 512, 4, 2, 4, 2], "dtype": "float32"}, {"name": "StatefulPartitionedCall/onnx_tf_prefix_Concat_81", "shape": [4], "dtype": "int32"}, {"name": "StatefulPartitionedCall/Where_4", "shape": [0, 1], "dtype": "int32"}, {"name": "StatefulPartitionedCall/GatherV2_4", "shape": [0], "dtype": "int32"}, {"name": "StatefulPartitionedCall/assert_equal_11/Assert/AssertGuard/else/_158/assert_equal_11/Assert/AssertGuard/Identity_1", "shape": [], "dtype": "bool"}, {"name": "StatefulPartitionedCall/assert_equal_13/Assert/AssertGuard/pivot_t/_171", "shape": [], "dtype": "bool"}, {"name": "Func/StatefulPartitionedCall/assert_equal_13/Assert/AssertGuard/then/_167/output/_413", "shape": [], "dtype": "bool"}, {"name": "StatefulPartitionedCall/assert_equal_13/Assert/AssertGuard/else/_168/assert_equal_13/Assert/AssertGuard/Identity_1", "shape": [], "dtype": "bool"}, {"name": "StatefulPartitionedCall/assert_equal_15/Assert/AssertGuard/pivot_t/_181", "shape": [], "dtype": "bool"}, {"name": "Func/StatefulPartitionedCall/assert_equal_15/Assert/AssertGuard/then/_177/output/_425", "shape": [], "dtype": "bool"}, {"name": "StatefulPartitionedCall/assert_equal_15/Assert/AssertGuard/else/_178/assert_equal_15/Assert/AssertGuard/Identity_1", "shape": [], "dtype": "bool"}, {"name": "StatefulPartitionedCall/assert_equal_17/Assert/AssertGuard/pivot_t/_191", "shape": [], "dtype": "bool"}, {"name": "Func/StatefulPartitionedCall/assert_equal_17/Assert/AssertGuard/then/_187/output/_437", "shape": [], "dtype": "bool"}, {"name": "StatefulPartitionedCall/onnx_tf_prefix_Concat_119", "shape": [6], "dtype": "int32"}, {"name": "StatefulPartitionedCall/Where_5", "shape": [0, 1], "dtype": "int32"}, {"name": "StatefulPartitionedCall/GatherV2_5", "shape": [0], "dtype": "int32"}, {"name": "StatefulPartitionedCall/ones_1", "shape": [1, 512, 8, 2, 8, 2], "dtype": "float32"}, {"name": "StatefulPartitionedCall/onnx_tf_prefix_Concat_142", "shape": [4], "dtype": "int32"}, {"name": "StatefulPartitionedCall/Where_7", "shape": [0, 1], "dtype": "int32"}, {"name": "StatefulPartitionedCall/GatherV2_7", "shape": [0], "dtype": "int32"}, {"name": "StatefulPartitionedCall/assert_equal_17/Assert/AssertGuard/else/_188/assert_equal_17/Assert/AssertGuard/Identity_1", "shape": [], "dtype": "bool"}, {"name": "StatefulPartitionedCall/assert_equal_19/Assert/AssertGuard/pivot_t/_201", "shape": [], "dtype": "bool"}, {"name": "Func/StatefulPartitionedCall/assert_equal_19/Assert/AssertGuard/then/_197/output/_449", "shape": [], "dtype": "bool"}, {"name": "StatefulPartitionedCall/assert_equal_19/Assert/AssertGuard/else/_198/assert_equal_19/Assert/AssertGuard/Identity_1", "shape": [], "dtype": "bool"}, {"name": "StatefulPartitionedCall/assert_equal_21/Assert/AssertGuard/pivot_t/_211", "shape": [], "dtype": "bool"}, {"name": "Func/StatefulPartitionedCall/assert_equal_21/Assert/AssertGuard/then/_207/output/_461", "shape": [], "dtype": "bool"}, {"name": "StatefulPartitionedCall/assert_equal_21/Assert/AssertGuard/else/_208/assert_equal_21/Assert/AssertGuard/Identity_1", "shape": [], "dtype": "bool"}, {"name": "StatefulPartitionedCall/assert_equal_23/Assert/AssertGuard/pivot_t/_221", "shape": [], "dtype": "bool"}, {"name": "Func/StatefulPartitionedCall/assert_equal_23/Assert/AssertGuard/then/_217/output/_473", "shape": [], "dtype": "bool"}, {"name": "StatefulPartitionedCall/onnx_tf_prefix_Concat_180", "shape": [6], "dtype": "int32"}, {"name": "StatefulPartitionedCall/Where_8", "shape": [0, 1], "dtype": "int32"}, {"name": "StatefulPartitionedCall/GatherV2_8", "shape": [0], "dtype": "int32"}, {"name": "StatefulPartitionedCall/ones_2", "shape": [1, 512, 16, 2, 16, 2], "dtype": "float32"}, {"name": "StatefulPartitionedCall/onnx_tf_prefix_Concat_203", "shape": [4], "dtype": "int32"}, {"name": "StatefulPartitionedCall/Where_10", "shape": [0, 1], "dtype": "int32"}, {"name": "StatefulPartitionedCall/GatherV2_10", "shape": [0], "dtype": "int32"}, {"name": "StatefulPartitionedCall/assert_equal_23/Assert/AssertGuard/else/_218/assert_equal_23/Assert/AssertGuard/Identity_1", "shape": [], "dtype": "bool"}, {"name": "StatefulPartitionedCall/assert_equal_25/Assert/AssertGuard/pivot_t/_231", "shape": [], "dtype": "bool"}, {"name": "Func/StatefulPartitionedCall/assert_equal_25/Assert/AssertGuard/then/_227/output/_485", "shape": [], "dtype": "bool"}, {"name": "StatefulPartitionedCall/assert_equal_25/Assert/AssertGuard/else/_228/assert_equal_25/Assert/AssertGuard/Identity_1", "shape": [], "dtype": "bool"}, {"name": "StatefulPartitionedCall/assert_equal_27/Assert/AssertGuard/pivot_t/_241", "shape": [], "dtype": "bool"}, {"name": "Func/StatefulPartitionedCall/assert_equal_27/Assert/AssertGuard/then/_237/output/_497", "shape": [], "dtype": "bool"}, {"name": "StatefulPartitionedCall/assert_equal_27/Assert/AssertGuard/else/_238/assert_equal_27/Assert/AssertGuard/Identity_1", "shape": [], "dtype": "bool"}, {"name": "StatefulPartitionedCall/assert_equal_29/Assert/AssertGuard/pivot_t/_251", "shape": [], "dtype": "bool"}, {"name": "Func/StatefulPartitionedCall/assert_equal_29/Assert/AssertGuard/then/_247/output/_509", "shape": [], "dtype": "bool"}, {"name": "StatefulPartitionedCall/onnx_tf_prefix_Concat_241", "shape": [6], "dtype": "int32"}, {"name": "StatefulPartitionedCall/Where_11", "shape": [0, 1], "dtype": "int32"}, {"name": "StatefulPartitionedCall/GatherV2_11", "shape": [0], "dtype": "int32"}, {"name": "StatefulPartitionedCall/ones_3", "shape": [1, 512, 32, 2, 32, 2], "dtype": "float32"}, {"name": "StatefulPartitionedCall/onnx_tf_prefix_Concat_264", "shape": [4], "dtype": "int32"}, {"name": "StatefulPartitionedCall/Where_13", "shape": [0, 1], "dtype": "int32"}, {"name": "StatefulPartitionedCall/GatherV2_13", "shape": [0], "dtype": "int32"}, {"name": "StatefulPartitionedCall/assert_equal_29/Assert/AssertGuard/else/_248/assert_equal_29/Assert/AssertGuard/Identity_1", "shape": [], "dtype": "bool"}, {"name": "StatefulPartitionedCall/assert_equal_31/Assert/AssertGuard/pivot_t/_261", "shape": [], "dtype": "bool"}, {"name": "Func/StatefulPartitionedCall/assert_equal_31/Assert/AssertGuard/then/_257/output/_521", "shape": [], "dtype": "bool"}, {"name": "StatefulPartitionedCall/assert_equal_31/Assert/AssertGuard/else/_258/assert_equal_31/Assert/AssertGuard/Identity_1", "shape": [], "dtype": "bool"}, {"name": "StatefulPartitionedCall/assert_equal_33/Assert/AssertGuard/pivot_t/_271", "shape": [], "dtype": "bool"}, {"name": "Func/StatefulPartitionedCall/assert_equal_33/Assert/AssertGuard/then/_267/output/_533", "shape": [], "dtype": "bool"}, {"name": "StatefulPartitionedCall/assert_equal_33/Assert/AssertGuard/else/_268/assert_equal_33/Assert/AssertGuard/Identity_1", "shape": [], "dtype": "bool"}, {"name": "StatefulPartitionedCall/assert_equal_35/Assert/AssertGuard/pivot_t/_281", "shape": [], "dtype": "bool"}, {"name": "Func/StatefulPartitionedCall/assert_equal_35/Assert/AssertGuard/then/_277/output/_545", "shape": [], "dtype": "bool"}, {"name": "StatefulPartitionedCall/onnx_tf_prefix_Concat_302", "shape": [6], "dtype": "int32"}, {"name": "StatefulPartitionedCall/Where_14", "shape": [0, 1], "dtype": "int32"}, {"name": "StatefulPartitionedCall/GatherV2_14", "shape": [0], "dtype": "int32"}, {"name": "StatefulPartitionedCall/ones_4", "shape": [1, 256, 64, 2, 64, 2], "dtype": "float32"}, {"name": "StatefulPartitionedCall/onnx_tf_prefix_Concat_325", "shape": [4], "dtype": "int32"}, {"name": "StatefulPartitionedCall/Where_16", "shape": [0, 1], "dtype": "int32"}, {"name": "StatefulPartitionedCall/GatherV2_16", "shape": [0], "dtype": "int32"}, {"name": "StatefulPartitionedCall/assert_equal_35/Assert/AssertGuard/else/_278/assert_equal_35/Assert/AssertGuard/Identity_1", "shape": [], "dtype": "bool"}, {"name": "StatefulPartitionedCall/assert_equal_37/Assert/AssertGuard/pivot_t/_291", "shape": [], "dtype": "bool"}, {"name": "Func/StatefulPartitionedCall/assert_equal_37/Assert/AssertGuard/then/_287/output/_557", "shape": [], "dtype": "bool"}, {"name": "StatefulPartitionedCall/assert_equal_37/Assert/AssertGuard/else/_288/assert_equal_37/Assert/AssertGuard/Identity_1", "shape": [], "dtype": "bool"}, {"name": "StatefulPartitionedCall/assert_equal_39/Assert/AssertGuard/pivot_t/_301", "shape": [], "dtype": "bool"}, {"name": "Func/StatefulPartitionedCall/assert_equal_39/Assert/AssertGuard/then/_297/output/_569", "shape": [], "dtype": "bool"}, {"name": "StatefulPartitionedCall/assert_equal_39/Assert/AssertGuard/else/_298/assert_equal_39/Assert/AssertGuard/Identity_1", "shape": [], "dtype": "bool"}, {"name": "StatefulPartitionedCall/assert_equal_41/Assert/AssertGuard/pivot_t/_311", "shape": [], "dtype": "bool"}, {"name": "Func/StatefulPartitionedCall/assert_equal_41/Assert/AssertGuard/then/_307/output/_581", "shape": [], "dtype": "bool"}, {"name": "StatefulPartitionedCall/onnx_tf_prefix_Concat_363", "shape": [6], "dtype": "int32"}, {"name": "StatefulPartitionedCall/Where_17", "shape": [0, 1], "dtype": "int32"}, {"name": "StatefulPartitionedCall/GatherV2_17", "shape": [0], "dtype": "int32"}, {"name": "StatefulPartitionedCall/ones_5", "shape": [1, 128, 128, 2, 128, 2], "dtype": "float32"}, {"name": "StatefulPartitionedCall/onnx_tf_prefix_Concat_386", "shape": [4], "dtype": "int32"}, {"name": "StatefulPartitionedCall/Where_19", "shape": [0, 1], "dtype": "int32"}, {"name": "StatefulPartitionedCall/GatherV2_19", "shape": [0], "dtype": "int32"}, {"name": "StatefulPartitionedCall/assert_equal_41/Assert/AssertGuard/else/_308/assert_equal_41/Assert/AssertGuard/Identity_1", "shape": [], "dtype": "bool"}, {"name": "StatefulPartitionedCall/assert_equal_43/Assert/AssertGuard/pivot_t/_321", "shape": [], "dtype": "bool"}, {"name": "Func/StatefulPartitionedCall/assert_equal_43/Assert/AssertGuard/then/_317/output/_593", "shape": [], "dtype": "bool"}, {"name": "StatefulPartitionedCall/assert_equal_43/Assert/AssertGuard/else/_318/assert_equal_43/Assert/AssertGuard/Identity_1", "shape": [], "dtype": "bool"}, {"name": "StatefulPartitionedCall/assert_equal_45/Assert/AssertGuard/pivot_t/_331", "shape": [], "dtype": "bool"}, {"name": "Func/StatefulPartitionedCall/assert_equal_45/Assert/AssertGuard/then/_327/output/_605", "shape": [], "dtype": "bool"}, {"name": "StatefulPartitionedCall/assert_equal_45/Assert/AssertGuard/else/_328/assert_equal_45/Assert/AssertGuard/Identity_1", "shape": [], "dtype": "bool"}, {"name": "StatefulPartitionedCall/onnx_tf_prefix_Concat_424", "shape": [6], "dtype": "int32"}, {"name": "StatefulPartitionedCall/Where_20", "shape": [0, 1], "dtype": "int32"}, {"name": "StatefulPartitionedCall/GatherV2_20", "shape": [0], "dtype": "int32"}, {"name": "StatefulPartitionedCall/ones_6", "shape": [1, 64, 256, 2, 256, 2], "dtype": "float32"}, {"name": "StatefulPartitionedCall/onnx_tf_prefix_Concat_447", "shape": [4], "dtype": "int32"}, {"name": "StatefulPartitionedCall/Where_22", "shape": [0, 1], "dtype": "int32"}, {"name": "StatefulPartitionedCall/GatherV2_22", "shape": [0], "dtype": "int32"}]}]}